…
  NESTEROV: False
  OPTIMIZER: ADAMW
  REFERENCE_WORLD_SIZE: 0
  STEPS: (280000, 333300)
  WARMUP_FACTOR: 0.01
  WARMUP_ITERS: 1000
  WARMUP_METHOD: linear
  WEIGHT_DECAY: 0.0001
  WEIGHT_DECAY_BIAS: 0.0001
  WEIGHT_DECAY_NORM: 0.0
TEST:
  AUG:
    ENABLED: False
    FLIP: True
    MAX_SIZE: 4000
    MIN_SIZES: (400, 500, 600, 700, 800, 900, 1000, 1100, 1200)
  DETECTIONS_PER_IMAGE: 100
  EVAL_PERIOD: 7330
  EXPECTED_RESULTS: []
  KEYPOINT_OKS_SIGMAS: []
  PRECISE_BN:
    ENABLED: False
    NUM_ITER: 200
VERSION: 2
VIS_PERIOD: 0
[11/20 17:49:14] detectron2.engine.defaults INFO: Model:
Detr(
  (query_embed): Embedding(300, 256)
  (init_proposals): Embedding(300, 4)
  (backbone): Joiner(
    (0): MaskedBackbone(
      (backbone): FPN(
        (fpn_lateral2): Conv2d(256, 256, kernel_size=(1, 1), stride=(1, 1))
        (fpn_output2): Conv2d(256, 256, kernel_size=(3, 3), stride=(1, 1), padding=(1, 1))
        (fpn_lateral3): Conv2d(512, 256, kernel_size=(1, 1), stride=(1, 1))
        (fpn_output3): Conv2d(256, 256, kernel_size=(3, 3), stride=(1, 1), padding=(1, 1))
        (fpn_lateral4): Conv2d(1024, 256, kernel_size=(1, 1), stride=(1, 1))
        (fpn_output4): Conv2d(256, 256, kernel_size=(3, 3), stride=(1, 1), padding=(1, 1))
        (fpn_lateral5): Conv2d(2048, 256, kernel_size=(1, 1), stride=(1, 1))
        (fpn_output5): Conv2d(256, 256, kernel_size=(3, 3), stride=(1, 1), padding=(1, 1))
        (top_block): LastLevelMaxPool()
        (bottom_up): ResNet(
          (stem): BasicStem(
            (conv1): Conv2d(
              3, 64, kernel_size=(7, 7), stride=(2, 2), padding=(3, 3), bias=False
              (norm): FrozenBatchNorm2d(num_features=64, eps=1e-05)
            )
          )
          (res2): Sequential(
            (0): BottleneckBlock(
              (shortcut): Conv2d(
                64, 256, kernel_size=(1, 1), stride=(1, 1), bias=False
                (norm): FrozenBatchNorm2d(num_features=256, eps=1e-05)
              )
              (conv1): Conv2d(
                64, 64, kernel_size=(1, 1), stride=(1, 1), bias=False
                (norm): FrozenBatchNorm2d(num_features=64, eps=1e-05)
              )
              (conv2): Conv2d(
                64, 64, kernel_size=(3, 3), stride=(1, 1), padding=(1, 1), bias=False
                (norm): FrozenBatchNorm2d(num_features=64, eps=1e-05)
              )
              (conv3): Conv2d(
                64, 256, kernel_size=(1, 1), stride=(1, 1), bias=False
                (norm): FrozenBatchNorm2d(num_features=256, eps=1e-05)
              )
            )
            (1): BottleneckBlock(
              (conv1): Conv2d(
                256, 64, kernel_size=(1, 1), stride=(1, 1), bias=False
                (norm): FrozenBatchNorm2d(num_features=64, eps=1e-05)
              )
              (conv2): Conv2d(
                64, 64, kernel_size=(3, 3), stride=(1, 1), padding=(1, 1), bias=False
                (norm): FrozenBatchNorm2d(num_features=64, eps=1e-05)
              )
              (conv3): Conv2d(
                64, 256, kernel_size=(1, 1), stride=(1, 1), bias=False
                (norm): FrozenBatchNorm2d(num_features=256, eps=1e-05)
              )
            )
            (2): BottleneckBlock(
              (conv1): Conv2d(
                256, 64, kernel_size=(1, 1), stride=(1, 1), bias=False
                (norm): FrozenBatchNorm2d(num_features=64, eps=1e-05)
              )
              (conv2): Conv2d(
                64, 64, kernel_size=(3, 3), stride=(1, 1), padding=(1, 1), bias=False
                (norm): FrozenBatchNorm2d(num_features=64, eps=1e-05)
              )
              (conv3): Conv2d(
                64, 256, kernel_size=(1, 1), stride=(1, 1), bias=False
                (norm): FrozenBatchNorm2d(num_features=256, eps=1e-05)
              )
            )
          )
          (res3): Sequential(
            (0): BottleneckBlock(
              (shortcut): Conv2d(
                256, 512, kernel_size=(1, 1), stride=(2, 2), bias=False
                (norm): FrozenBatchNorm2d(num_features=512, eps=1e-05)
              )
              (conv1): Conv2d(
                256, 128, kernel_size=(1, 1), stride=(1, 1), bias=False
                (norm): FrozenBatchNorm2d(num_features=128, eps=1e-05)
              )
              (conv2): Conv2d(
                128, 128, kernel_size=(3, 3), stride=(2, 2), padding=(1, 1), bias=False
                (norm): FrozenBatchNorm2d(num_features=128, eps=1e-05)
              )
              (conv3): Conv2d(
                128, 512, kernel_size=(1, 1), stride=(1, 1), bias=False
                (norm): FrozenBatchNorm2d(num_features=512, eps=1e-05)
              )
            )
            (1): BottleneckBlock(
              (conv1): Conv2d(
                512, 128, kernel_size=(1, 1), stride=(1, 1), bias=False
                (norm): FrozenBatchNorm2d(num_features=128, eps=1e-05)
              )
              (conv2): Conv2d(
                128, 128, kernel_size=(3, 3), stride=(1, 1), padding=(1, 1), bias=False
                (norm): FrozenBatchNorm2d(num_features=128, eps=1e-05)
              )
              (conv3): Conv2d(
                128, 512, kernel_size=(1, 1), stride=(1, 1), bias=False
                (norm): FrozenBatchNorm2d(num_features=512, eps=1e-05)
              )
            )
            (2): BottleneckBlock(
              (conv1): Conv2d(
                512, 128, kernel_size=(1, 1), stride=(1, 1), bias=False
                (norm): FrozenBatchNorm2d(num_features=128, eps=1e-05)
              )
              (conv2): Conv2d(
                128, 128, kernel_size=(3, 3), stride=(1, 1), padding=(1, 1), bias=False
                (norm): FrozenBatchNorm2d(num_features=128, eps=1e-05)
              )
              (conv3): Conv2d(
                128, 512, kernel_size=(1, 1), stride=(1, 1), bias=False
                (norm): FrozenBatchNorm2d(num_features=512, eps=1e-05)
              )
            )
            (3): BottleneckBlock(
              (conv1): Conv2d(
                512, 128, kernel_size=(1, 1), stride=(1, 1), bias=False
                (norm): FrozenBatchNorm2d(num_features=128, eps=1e-05)
              )
              (conv2): Conv2d(
                128, 128, kernel_size=(3, 3), stride=(1, 1), padding=(1, 1), bias=False
                (norm): FrozenBatchNorm2d(num_features=128, eps=1e-05)
              )
              (conv3): Conv2d(
                128, 512, kernel_size=(1, 1), stride=(1, 1), bias=False
                (norm): FrozenBatchNorm2d(num_features=512, eps=1e-05)
              )
            )
          )
          (res4): Sequential(
            (0): BottleneckBlock(
              (shortcut): Conv2d(
                512, 1024, kernel_size=(1, 1), stride=(2, 2), bias=False
                (norm): FrozenBatchNorm2d(num_features=1024, eps=1e-05)
              )
              (conv1): Conv2d(
                512, 256, kernel_size=(1, 1), stride=(1, 1), bias=False
                (norm): FrozenBatchNorm2d(num_features=256, eps=1e-05)
              )
              (conv2): Conv2d(
                256, 256, kernel_size=(3, 3), stride=(2, 2), padding=(1, 1), bias=False
                (norm): FrozenBatchNorm2d(num_features=256, eps=1e-05)
              )
              (conv3): Conv2d(
                256, 1024, kernel_size=(1, 1), stride=(1, 1), bias=False
                (norm): FrozenBatchNorm2d(num_features=1024, eps=1e-05)
              )
            )
            (1): BottleneckBlock(
              (conv1): Conv2d(
                1024, 256, kernel_size=(1, 1), stride=(1, 1), bias=False
                (norm): FrozenBatchNorm2d(num_features=256, eps=1e-05)
              )
              (conv2): Conv2d(
                256, 256, kernel_size=(3, 3), stride=(1, 1), padding=(1, 1), bias=False
                (norm): FrozenBatchNorm2d(num_features=256, eps=1e-05)
              )
              (conv3): Conv2d(
                256, 1024, kernel_size=(1, 1), stride=(1, 1), bias=False
                (norm): FrozenBatchNorm2d(num_features=1024, eps=1e-05)
              )
            )
            (2): BottleneckBlock(
              (conv1): Conv2d(
                1024, 256, kernel_size=(1, 1), stride=(1, 1), bias=False
                (norm): FrozenBatchNorm2d(num_features=256, eps=1e-05)
              )
              (conv2): Conv2d(
                256, 256, kernel_size=(3, 3), stride=(1, 1), padding=(1, 1), bias=False
                (norm): FrozenBatchNorm2d(num_features=256, eps=1e-05)
              )
              (conv3): Conv2d(
                256, 1024, kernel_size=(1, 1), stride=(1, 1), bias=False
                (norm): FrozenBatchNorm2d(num_features=1024, eps=1e-05)
              )
            )
            (3): BottleneckBlock(
              (conv1): Conv2d(
                1024, 256, kernel_size=(1, 1), stride=(1, 1), bias=False
                (norm): FrozenBatchNorm2d(num_features=256, eps=1e-05)
              )
              (conv2): Conv2d(
                256, 256, kernel_size=(3, 3), stride=(1, 1), padding=(1, 1), bias=False
                (norm): FrozenBatchNorm2d(num_features=256, eps=1e-05)
              )
              (conv3): Conv2d(
                256, 1024, kernel_size=(1, 1), stride=(1, 1), bias=False
                (norm): FrozenBatchNorm2d(num_features=1024, eps=1e-05)
              )
            )
            (4): BottleneckBlock(
              (conv1): Conv2d(
                1024, 256, kernel_size=(1, 1), stride=(1, 1), bias=False
                (norm): FrozenBatchNorm2d(num_features=256, eps=1e-05)
              )
              (conv2): Conv2d(
                256, 256, kernel_size=(3, 3), stride=(1, 1), padding=(1, 1), bias=False
                (norm): FrozenBatchNorm2d(num_features=256, eps=1e-05)
              )
              (conv3): Conv2d(
                256, 1024, kernel_size=(1, 1), stride=(1, 1), bias=False
                (norm): FrozenBatchNorm2d(num_features=1024, eps=1e-05)
              )
            )
            (5): BottleneckBlock(
              (conv1): Conv2d(
                1024, 256, kernel_size=(1, 1), stride=(1, 1), bias=False
                (norm): FrozenBatchNorm2d(num_features=256, eps=1e-05)
              )
              (conv2): Conv2d(
                256, 256, kernel_size=(3, 3), stride=(1, 1), padding=(1, 1), bias=False
                (norm): FrozenBatchNorm2d(num_features=256, eps=1e-05)
              )
              (conv3): Conv2d(
                256, 1024, kernel_size=(1, 1), stride=(1, 1), bias=False
                (norm): FrozenBatchNorm2d(num_features=1024, eps=1e-05)
              )
            )
          )
          (res5): Sequential(
            (0): BottleneckBlock(
              (shortcut): Conv2d(
                1024, 2048, kernel_size=(1, 1), stride=(2, 2), bias=False
                (norm): FrozenBatchNorm2d(num_features=2048, eps=1e-05)
              )
              (conv1): Conv2d(
                1024, 512, kernel_size=(1, 1), stride=(1, 1), bias=False
                (norm): FrozenBatchNorm2d(num_features=512, eps=1e-05)
              )
              (conv2): Conv2d(
                512, 512, kernel_size=(3, 3), stride=(2, 2), padding=(1, 1), bias=False
                (norm): FrozenBatchNorm2d(num_features=512, eps=1e-05)
              )
              (conv3): Conv2d(
                512, 2048, kernel_size=(1, 1), stride=(1, 1), bias=False
                (norm): FrozenBatchNorm2d(num_features=2048, eps=1e-05)
              )
            )
            (1): BottleneckBlock(
              (conv1): Conv2d(
                2048, 512, kernel_size=(1, 1), stride=(1, 1), bias=False
                (norm): FrozenBatchNorm2d(num_features=512, eps=1e-05)
              )
              (conv2): Conv2d(
                512, 512, kernel_size=(3, 3), stride=(1, 1), padding=(1, 1), bias=False
                (norm): FrozenBatchNorm2d(num_features=512, eps=1e-05)
              )
              (conv3): Conv2d(
                512, 2048, kernel_size=(1, 1), stride=(1, 1), bias=False
                (norm): FrozenBatchNorm2d(num_features=2048, eps=1e-05)
              )
            )
            (2): BottleneckBlock(
              (conv1): Conv2d(
                2048, 512, kernel_size=(1, 1), stride=(1, 1), bias=False
                (norm): FrozenBatchNorm2d(num_features=512, eps=1e-05)
              )
              (conv2): Conv2d(
                512, 512, kernel_size=(3, 3), stride=(1, 1), padding=(1, 1), bias=False
                (norm): FrozenBatchNorm2d(num_features=512, eps=1e-05)
              )
              (conv3): Conv2d(
                512, 2048, kernel_size=(1, 1), stride=(1, 1), bias=False
                (norm): FrozenBatchNorm2d(num_features=2048, eps=1e-05)
              )
            )
          )
        )
      )
    )
    (1): PositionEmbeddingSine()
  )
  (RoITransformer): ROITransformer(
    (decoder): RCNNHead(
      (box_pooler): ROIPooler(
        (level_poolers): ModuleList(
          (0): ROIAlign(output_size=(7, 7), spatial_scale=0.25, sampling_ratio=2, aligned=True)
          (1): ROIAlign(output_size=(7, 7), spatial_scale=0.125, sampling_ratio=2, aligned=True)
          (2): ROIAlign(output_size=(7, 7), spatial_scale=0.0625, sampling_ratio=2, aligned=True)
          (3): ROIAlign(output_size=(7, 7), spatial_scale=0.03125, sampling_ratio=2, aligned=True)
        )
      )
      (decoders): ModuleList(
        (0): RCNNHeadLayer(
          (self_attn): MultiheadAttention(
            (out_proj): _LinearWithBias(in_features=256, out_features=256, bias=True)
          )
          (multihead_attn): DynamicConv_Plain(
            (dynamic_layer): Linear(in_features=256, out_features=32768, bias=True)
            (norm1): LayerNorm((64,), eps=1e-05, elementwise_affine=True)
            (norm2): LayerNorm((256,), eps=1e-05, elementwise_affine=True)
            (activation): ReLU(inplace=True)
            (out_layer): Linear(in_features=12544, out_features=256, bias=True)
            (norm3): LayerNorm((256,), eps=1e-05, elementwise_affine=True)
          )
          (linear1): Linear(in_features=256, out_features=2048, bias=True)
          (dropout): Dropout(p=0.1, inplace=False)
          (linear2): Linear(in_features=2048, out_features=256, bias=True)
          (norm1): LayerNorm((256,), eps=1e-05, elementwise_affine=True)
          (norm2): LayerNorm((256,), eps=1e-05, elementwise_affine=True)
          (norm3): LayerNorm((256,), eps=1e-05, elementwise_affine=True)
          (dropout1): Dropout(p=0.1, inplace=False)
          (dropout2): Dropout(p=0.1, inplace=False)
          (dropout3): Dropout(p=0.1, inplace=False)
          (conv_module): ModuleList(
            (0): Conv2d(256, 256, kernel_size=(3, 3), stride=(1, 1), padding=(1, 1), bias=False)
            (1): GroupNorm(32, 256, eps=1e-05, affine=True)
            (2): ReLU(inplace=True)
            (3): Conv2d(256, 256, kernel_size=(3, 3), stride=(1, 1), padding=(1, 1), bias=False)
            (4): GroupNorm(32, 256, eps=1e-05, affine=True)
            (5): ReLU(inplace=True)
            (6): Conv2d(256, 256, kernel_size=(3, 3), stride=(1, 1), padding=(1, 1), bias=False)
            (7): GroupNorm(32, 256, eps=1e-05, affine=True)
            (8): ReLU(inplace=True)
            (9): Conv2d(256, 256, kernel_size=(3, 3), stride=(1, 1), padding=(1, 1), bias=False)
            (10): GroupNorm(32, 256, eps=1e-05, affine=True)
            (11): ReLU(inplace=True)
          )
          (cls_module): ModuleList(
            (0): Linear(in_features=256, out_features=256, bias=False)
            (1): LayerNorm((256,), eps=1e-05, elementwise_affine=True)
            (2): ReLU(inplace=True)
          )
          (reg_module): ModuleList(
            (0): Linear(in_features=256, out_features=256, bias=False)
            (1): LayerNorm((256,), eps=1e-05, elementwise_affine=True)
            (2): ReLU(inplace=True)
            (3): Linear(in_features=256, out_features=256, bias=False)
            (4): LayerNorm((256,), eps=1e-05, elementwise_affine=True)
            (5): ReLU(inplace=True)
            (6): Linear(in_features=256, out_features=256, bias=False)
            (7): LayerNorm((256,), eps=1e-05, elementwise_affine=True)
            (8): ReLU(inplace=True)
          )
          (class_logits): Linear(in_features=256, out_features=80, bias=True)
          (bboxes_delta): Linear(in_features=256, out_features=4, bias=True)
        )
        (1): RCNNHeadLayer(
          (self_attn): MultiheadAttention(
            (out_proj): _LinearWithBias(in_features=256, out_features=256, bias=True)
          )
          (multihead_attn): DynamicConv_Plain(
            (dynamic_layer): Linear(in_features=256, out_features=32768, bias=True)
            (norm1): LayerNorm((64,), eps=1e-05, elementwise_affine=True)
            (norm2): LayerNorm((256,), eps=1e-05, elementwise_affine=True)
            (activation): ReLU(inplace=True)
            (out_layer): Linear(in_features=12544, out_features=256, bias=True)
            (norm3): LayerNorm((256,), eps=1e-05, elementwise_affine=True)
          )
          (linear1): Linear(in_features=256, out_features=2048, bias=True)
          (dropout): Dropout(p=0.1, inplace=False)
          (linear2): Linear(in_features=2048, out_features=256, bias=True)
          (norm1): LayerNorm((256,), eps=1e-05, elementwise_affine=True)
          (norm2): LayerNorm((256,), eps=1e-05, elementwise_affine=True)
          (norm3): LayerNorm((256,), eps=1e-05, elementwise_affine=True)
          (dropout1): Dropout(p=0.1, inplace=False)
          (dropout2): Dropout(p=0.1, inplace=False)
          (dropout3): Dropout(p=0.1, inplace=False)
          (conv_module): ModuleList(
            (0): Conv2d(256, 256, kernel_size=(3, 3), stride=(1, 1), padding=(1, 1), bias=False)
            (1): GroupNorm(32, 256, eps=1e-05, affine=True)
            (2): ReLU(inplace=True)
            (3): Conv2d(256, 256, kernel_size=(3, 3), stride=(1, 1), padding=(1, 1), bias=False)
            (4): GroupNorm(32, 256, eps=1e-05, affine=True)
            (5): ReLU(inplace=True)
            (6): Conv2d(256, 256, kernel_size=(3, 3), stride=(1, 1), padding=(1, 1), bias=False)
            (7): GroupNorm(32, 256, eps=1e-05, affine=True)
            (8): ReLU(inplace=True)
            (9): Conv2d(256, 256, kernel_size=(3, 3), stride=(1, 1), padding=(1, 1), bias=False)
            (10): GroupNorm(32, 256, eps=1e-05, affine=True)
            (11): ReLU(inplace=True)
          )
          (cls_module): ModuleList(
            (0): Linear(in_features=256, out_features=256, bias=False)
            (1): LayerNorm((256,), eps=1e-05, elementwise_affine=True)
            (2): ReLU(inplace=True)
          )
          (reg_module): ModuleList(
            (0): Linear(in_features=256, out_features=256, bias=False)
            (1): LayerNorm((256,), eps=1e-05, elementwise_affine=True)
            (2): ReLU(inplace=True)
            (3): Linear(in_features=256, out_features=256, bias=False)
            (4): LayerNorm((256,), eps=1e-05, elementwise_affine=True)
            (5): ReLU(inplace=True)
            (6): Linear(in_features=256, out_features=256, bias=False)
            (7): LayerNorm((256,), eps=1e-05, elementwise_affine=True)
            (8): ReLU(inplace=True)
          )
          (class_logits): Linear(in_features=256, out_features=80, bias=True)
          (bboxes_delta): Linear(in_features=256, out_features=4, bias=True)
        )
        (2): RCNNHeadLayer(
          (self_attn): MultiheadAttention(
            (out_proj): _LinearWithBias(in_features=256, out_features=256, bias=True)
          )
          (multihead_attn): DynamicConv_Plain(
            (dynamic_layer): Linear(in_features=256, out_features=32768, bias=True)
            (norm1): LayerNorm((64,), eps=1e-05, elementwise_affine=True)
            (norm2): LayerNorm((256,), eps=1e-05, elementwise_affine=True)
            (activation): ReLU(inplace=True)
            (out_layer): Linear(in_features=12544, out_features=256, bias=True)
            (norm3): LayerNorm((256,), eps=1e-05, elementwise_affine=True)
          )
          (linear1): Linear(in_features=256, out_features=2048, bias=True)
          (dropout): Dropout(p=0.1, inplace=False)
          (linear2): Linear(in_features=2048, out_features=256, bias=True)
          (norm1): LayerNorm((256,), eps=1e-05, elementwise_affine=True)
          (norm2): LayerNorm((256,), eps=1e-05, elementwise_affine=True)
          (norm3): LayerNorm((256,), eps=1e-05, elementwise_affine=True)
          (dropout1): Dropout(p=0.1, inplace=False)
          (dropout2): Dropout(p=0.1, inplace=False)
          (dropout3): Dropout(p=0.1, inplace=False)
          (conv_module): ModuleList(
            (0): Conv2d(256, 256, kernel_size=(3, 3), stride=(1, 1), padding=(1, 1), bias=False)
            (1): GroupNorm(32, 256, eps=1e-05, affine=True)
            (2): ReLU(inplace=True)
            (3): Conv2d(256, 256, kernel_size=(3, 3), stride=(1, 1), padding=(1, 1), bias=False)
            (4): GroupNorm(32, 256, eps=1e-05, affine=True)
            (5): ReLU(inplace=True)
            (6): Conv2d(256, 256, kernel_size=(3, 3), stride=(1, 1), padding=(1, 1), bias=False)
            (7): GroupNorm(32, 256, eps=1e-05, affine=True)
            (8): ReLU(inplace=True)
            (9): Conv2d(256, 256, kernel_size=(3, 3), stride=(1, 1), padding=(1, 1), bias=False)
            (10): GroupNorm(32, 256, eps=1e-05, affine=True)
            (11): ReLU(inplace=True)
          )
          (cls_module): ModuleList(
            (0): Linear(in_features=256, out_features=256, bias=False)
            (1): LayerNorm((256,), eps=1e-05, elementwise_affine=True)
            (2): ReLU(inplace=True)
          )
          (reg_module): ModuleList(
            (0): Linear(in_features=256, out_features=256, bias=False)
            (1): LayerNorm((256,), eps=1e-05, elementwise_affine=True)
            (2): ReLU(inplace=True)
            (3): Linear(in_features=256, out_features=256, bias=False)
            (4): LayerNorm((256,), eps=1e-05, elementwise_affine=True)
            (5): ReLU(inplace=True)
            (6): Linear(in_features=256, out_features=256, bias=False)
            (7): LayerNorm((256,), eps=1e-05, elementwise_affine=True)
            (8): ReLU(inplace=True)
          )
          (class_logits): Linear(in_features=256, out_features=80, bias=True)
          (bboxes_delta): Linear(in_features=256, out_features=4, bias=True)
        )
        (3): RCNNHeadLayer(
          (self_attn): MultiheadAttention(
            (out_proj): _LinearWithBias(in_features=256, out_features=256, bias=True)
          )
          (multihead_attn): DynamicConv_Plain(
            (dynamic_layer): Linear(in_features=256, out_features=32768, bias=True)
            (norm1): LayerNorm((64,), eps=1e-05, elementwise_affine=True)
            (norm2): LayerNorm((256,), eps=1e-05, elementwise_affine=True)
            (activation): ReLU(inplace=True)
            (out_layer): Linear(in_features=12544, out_features=256, bias=True)
            (norm3): LayerNorm((256,), eps=1e-05, elementwise_affine=True)
          )
          (linear1): Linear(in_features=256, out_features=2048, bias=True)
          (dropout): Dropout(p=0.1, inplace=False)
          (linear2): Linear(in_features=2048, out_features=256, bias=True)
          (norm1): LayerNorm((256,), eps=1e-05, elementwise_affine=True)
          (norm2): LayerNorm((256,), eps=1e-05, elementwise_affine=True)
          (norm3): LayerNorm((256,), eps=1e-05, elementwise_affine=True)
          (dropout1): Dropout(p=0.1, inplace=False)
          (dropout2): Dropout(p=0.1, inplace=False)
          (dropout3): Dropout(p=0.1, inplace=False)
          (conv_module): ModuleList(
            (0): Conv2d(256, 256, kernel_size=(3, 3), stride=(1, 1), padding=(1, 1), bias=False)
            (1): GroupNorm(32, 256, eps=1e-05, affine=True)
            (2): ReLU(inplace=True)
            (3): Conv2d(256, 256, kernel_size=(3, 3), stride=(1, 1), padding=(1, 1), bias=False)
            (4): GroupNorm(32, 256, eps=1e-05, affine=True)
            (5): ReLU(inplace=True)
            (6): Conv2d(256, 256, kernel_size=(3, 3), stride=(1, 1), padding=(1, 1), bias=False)
            (7): GroupNorm(32, 256, eps=1e-05, affine=True)
            (8): ReLU(inplace=True)
            (9): Conv2d(256, 256, kernel_size=(3, 3), stride=(1, 1), padding=(1, 1), bias=False)
            (10): GroupNorm(32, 256, eps=1e-05, affine=True)
            (11): ReLU(inplace=True)
          )
          (cls_module): ModuleList(
            (0): Linear(in_features=256, out_features=256, bias=False)
            (1): LayerNorm((256,), eps=1e-05, elementwise_affine=True)
            (2): ReLU(inplace=True)
          )
          (reg_module): ModuleList(
            (0): Linear(in_features=256, out_features=256, bias=False)
            (1): LayerNorm((256,), eps=1e-05, elementwise_affine=True)
            (2): ReLU(inplace=True)
            (3): Linear(in_features=256, out_features=256, bias=False)
            (4): LayerNorm((256,), eps=1e-05, elementwise_affine=True)
            (5): ReLU(inplace=True)
            (6): Linear(in_features=256, out_features=256, bias=False)
            (7): LayerNorm((256,), eps=1e-05, elementwise_affine=True)
            (8): ReLU(inplace=True)
          )
          (class_logits): Linear(in_features=256, out_features=80, bias=True)
          (bboxes_delta): Linear(in_features=256, out_features=4, bias=True)
        )
        (4): RCNNHeadLayer(
          (self_attn): MultiheadAttention(
            (out_proj): _LinearWithBias(in_features=256, out_features=256, bias=True)
          )
          (multihead_attn): DynamicConv_Plain(
            (dynamic_layer): Linear(in_features=256, out_features=32768, bias=True)
            (norm1): LayerNorm((64,), eps=1e-05, elementwise_affine=True)
            (norm2): LayerNorm((256,), eps=1e-05, elementwise_affine=True)
            (activation): ReLU(inplace=True)
            (out_layer): Linear(in_features=12544, out_features=256, bias=True)
            (norm3): LayerNorm((256,), eps=1e-05, elementwise_affine=True)
          )
          (linear1): Linear(in_features=256, out_features=2048, bias=True)
          (dropout): Dropout(p=0.1, inplace=False)
          (linear2): Linear(in_features=2048, out_features=256, bias=True)
          (norm1): LayerNorm((256,), eps=1e-05, elementwise_affine=True)
          (norm2): LayerNorm((256,), eps=1e-05, elementwise_affine=True)
          (norm3): LayerNorm((256,), eps=1e-05, elementwise_affine=True)
          (dropout1): Dropout(p=0.1, inplace=False)
          (dropout2): Dropout(p=0.1, inplace=False)
          (dropout3): Dropout(p=0.1, inplace=False)
          (conv_module): ModuleList(
            (0): Conv2d(256, 256, kernel_size=(3, 3), stride=(1, 1), padding=(1, 1), bias=False)
            (1): GroupNorm(32, 256, eps=1e-05, affine=True)
            (2): ReLU(inplace=True)
            (3): Conv2d(256, 256, kernel_size=(3, 3), stride=(1, 1), padding=(1, 1), bias=False)
            (4): GroupNorm(32, 256, eps=1e-05, affine=True)
            (5): ReLU(inplace=True)
            (6): Conv2d(256, 256, kernel_size=(3, 3), stride=(1, 1), padding=(1, 1), bias=False)
            (7): GroupNorm(32, 256, eps=1e-05, affine=True)
            (8): ReLU(inplace=True)
            (9): Conv2d(256, 256, kernel_size=(3, 3), stride=(1, 1), padding=(1, 1), bias=False)
            (10): GroupNorm(32, 256, eps=1e-05, affine=True)
            (11): ReLU(inplace=True)
          )
          (cls_module): ModuleList(
            (0): Linear(in_features=256, out_features=256, bias=False)
            (1): LayerNorm((256,), eps=1e-05, elementwise_affine=True)
            (2): ReLU(inplace=True)
          )
          (reg_module): ModuleList(
            (0): Linear(in_features=256, out_features=256, bias=False)
            (1): LayerNorm((256,), eps=1e-05, elementwise_affine=True)
            (2): ReLU(inplace=True)
            (3): Linear(in_features=256, out_features=256, bias=False)
            (4): LayerNorm((256,), eps=1e-05, elementwise_affine=True)
            (5): ReLU(inplace=True)
            (6): Linear(in_features=256, out_features=256, bias=False)
            (7): LayerNorm((256,), eps=1e-05, elementwise_affine=True)
            (8): ReLU(inplace=True)
          )
          (class_logits): Linear(in_features=256, out_features=80, bias=True)
          (bboxes_delta): Linear(in_features=256, out_features=4, bias=True)
        )
        (5): RCNNHeadLayer(
          (self_attn): MultiheadAttention(
            (out_proj): _LinearWithBias(in_features=256, out_features=256, bias=True)
          )
          (multihead_attn): DynamicConv_Plain(
            (dynamic_layer): Linear(in_features=256, out_features=32768, bias=True)
            (norm1): LayerNorm((64,), eps=1e-05, elementwise_affine=True)
            (norm2): LayerNorm((256,), eps=1e-05, elementwise_affine=True)
            (activation): ReLU(inplace=True)
            (out_layer): Linear(in_features=12544, out_features=256, bias=True)
            (norm3): LayerNorm((256,), eps=1e-05, elementwise_affine=True)
          )
          (linear1): Linear(in_features=256, out_features=2048, bias=True)
          (dropout): Dropout(p=0.1, inplace=False)
          (linear2): Linear(in_features=2048, out_features=256, bias=True)
          (norm1): LayerNorm((256,), eps=1e-05, elementwise_affine=True)
          (norm2): LayerNorm((256,), eps=1e-05, elementwise_affine=True)
          (norm3): LayerNorm((256,), eps=1e-05, elementwise_affine=True)
          (dropout1): Dropout(p=0.1, inplace=False)
          (dropout2): Dropout(p=0.1, inplace=False)
          (dropout3): Dropout(p=0.1, inplace=False)
          (conv_module): ModuleList(
            (0): Conv2d(256, 256, kernel_size=(3, 3), stride=(1, 1), padding=(1, 1), bias=False)
            (1): GroupNorm(32, 256, eps=1e-05, affine=True)
            (2): ReLU(inplace=True)
            (3): Conv2d(256, 256, kernel_size=(3, 3), stride=(1, 1), padding=(1, 1), bias=False)
            (4): GroupNorm(32, 256, eps=1e-05, affine=True)
            (5): ReLU(inplace=True)
            (6): Conv2d(256, 256, kernel_size=(3, 3), stride=(1, 1), padding=(1, 1), bias=False)
            (7): GroupNorm(32, 256, eps=1e-05, affine=True)
            (8): ReLU(inplace=True)
            (9): Conv2d(256, 256, kernel_size=(3, 3), stride=(1, 1), padding=(1, 1), bias=False)
            (10): GroupNorm(32, 256, eps=1e-05, affine=True)
            (11): ReLU(inplace=True)
          )
          (cls_module): ModuleList(
            (0): Linear(in_features=256, out_features=256, bias=False)
            (1): LayerNorm((256,), eps=1e-05, elementwise_affine=True)
            (2): ReLU(inplace=True)
          )
          (reg_module): ModuleList(
            (0): Linear(in_features=256, out_features=256, bias=False)
            (1): LayerNorm((256,), eps=1e-05, elementwise_affine=True)
            (2): ReLU(inplace=True)
            (3): Linear(in_features=256, out_features=256, bias=False)
            (4): LayerNorm((256,), eps=1e-05, elementwise_affine=True)
            (5): ReLU(inplace=True)
            (6): Linear(in_features=256, out_features=256, bias=False)
            (7): LayerNorm((256,), eps=1e-05, elementwise_affine=True)
            (8): ReLU(inplace=True)
          )
          (class_logits): Linear(in_features=256, out_features=80, bias=True)
          (bboxes_delta): Linear(in_features=256, out_features=4, bias=True)
        )
      )
    )
  )
  (criterion): SetCriterion(
    (matcher): HungarianMatcher()
  )
)
[11/20 17:49:14] fvcore.common.checkpoint INFO: Loading checkpoint from model_0309999.pth
[11/20 17:49:38] detectron2 INFO: Rank of current process: 1. World size: 8
[11/20 17:49:39] detectron2 INFO: Environment info:
----------------------  ---------------------------------------------------------
…
          (0): ROIAlign(output_size=(7, 7), spatial_scale=0.25, sampling_ratio=2, aligned=True)
          (1): ROIAlign(output_size=(7, 7), spatial_scale=0.125, sampling_ratio=2, aligned=True)
          (2): ROIAlign(output_size=(7, 7), spatial_scale=0.0625, sampling_ratio=2, aligned=True)
          (3): ROIAlign(output_size=(7, 7), spatial_scale=0.03125, sampling_ratio=2, aligned=True)
        )
      )
      (decoders): ModuleList(
        (0): RCNNHeadLayer(
          (self_attn): MultiheadAttention(
            (out_proj): _LinearWithBias(in_features=256, out_features=256, bias=True)
          )
          (multihead_attn): DynamicConv_Plain(
            (dynamic_layer): Linear(in_features=256, out_features=32768, bias=True)
            (norm1): LayerNorm((64,), eps=1e-05, elementwise_affine=True)
            (norm2): LayerNorm((256,), eps=1e-05, elementwise_affine=True)
            (activation): ReLU(inplace=True)
            (out_layer): Linear(in_features=12544, out_features=256, bias=True)
            (norm3): LayerNorm((256,), eps=1e-05, elementwise_affine=True)
          )
          (linear1): Linear(in_features=256, out_features=2048, bias=True)
          (dropout): Dropout(p=0.1, inplace=False)
          (linear2): Linear(in_features=2048, out_features=256, bias=True)
          (norm1): LayerNorm((256,), eps=1e-05, elementwise_affine=True)
          (norm2): LayerNorm((256,), eps=1e-05, elementwise_affine=True)
          (norm3): LayerNorm((256,), eps=1e-05, elementwise_affine=True)
          (dropout1): Dropout(p=0.1, inplace=False)
          (dropout2): Dropout(p=0.1, inplace=False)
          (dropout3): Dropout(p=0.1, inplace=False)
          (conv_module): ModuleList()
          (cls_module): ModuleList(
            (0): Linear(in_features=256, out_features=256, bias=False)
            (1): LayerNorm((256,), eps=1e-05, elementwise_affine=True)
            (2): ReLU(inplace=True)
          )
          (reg_module): ModuleList(
            (0): Linear(in_features=256, out_features=256, bias=False)
            (1): LayerNorm((256,), eps=1e-05, elementwise_affine=True)
            (2): ReLU(inplace=True)
            (3): Linear(in_features=256, out_features=256, bias=False)
            (4): LayerNorm((256,), eps=1e-05, elementwise_affine=True)
            (5): ReLU(inplace=True)
            (6): Linear(in_features=256, out_features=256, bias=False)
            (7): LayerNorm((256,), eps=1e-05, elementwise_affine=True)
            (8): ReLU(inplace=True)
          )
          (class_logits): Linear(in_features=256, out_features=80, bias=True)
          (bboxes_delta): Linear(in_features=256, out_features=4, bias=True)
        )
        (1): RCNNHeadLayer(
          (self_attn): MultiheadAttention(
            (out_proj): _LinearWithBias(in_features=256, out_features=256, bias=True)
          )
          (multihead_attn): DynamicConv_Plain(
            (dynamic_layer): Linear(in_features=256, out_features=32768, bias=True)
            (norm1): LayerNorm((64,), eps=1e-05, elementwise_affine=True)
            (norm2): LayerNorm((256,), eps=1e-05, elementwise_affine=True)
            (activation): ReLU(inplace=True)
            (out_layer): Linear(in_features=12544, out_features=256, bias=True)
            (norm3): LayerNorm((256,), eps=1e-05, elementwise_affine=True)
          )
          (linear1): Linear(in_features=256, out_features=2048, bias=True)
          (dropout): Dropout(p=0.1, inplace=False)
          (linear2): Linear(in_features=2048, out_features=256, bias=True)
          (norm1): LayerNorm((256,), eps=1e-05, elementwise_affine=True)
          (norm2): LayerNorm((256,), eps=1e-05, elementwise_affine=True)
          (norm3): LayerNorm((256,), eps=1e-05, elementwise_affine=True)
          (dropout1): Dropout(p=0.1, inplace=False)
          (dropout2): Dropout(p=0.1, inplace=False)
          (dropout3): Dropout(p=0.1, inplace=False)
          (conv_module): ModuleList()
          (cls_module): ModuleList(
            (0): Linear(in_features=256, out_features=256, bias=False)
            (1): LayerNorm((256,), eps=1e-05, elementwise_affine=True)
            (2): ReLU(inplace=True)
          )
          (reg_module): ModuleList(
            (0): Linear(in_features=256, out_features=256, bias=False)
            (1): LayerNorm((256,), eps=1e-05, elementwise_affine=True)
            (2): ReLU(inplace=True)
            (3): Linear(in_features=256, out_features=256, bias=False)
            (4): LayerNorm((256,), eps=1e-05, elementwise_affine=True)
            (5): ReLU(inplace=True)
            (6): Linear(in_features=256, out_features=256, bias=False)
            (7): LayerNorm((256,), eps=1e-05, elementwise_affine=True)
            (8): ReLU(inplace=True)
          )
          (class_logits): Linear(in_features=256, out_features=80, bias=True)
          (bboxes_delta): Linear(in_features=256, out_features=4, bias=True)
        )
        (2): RCNNHeadLayer(
          (self_attn): MultiheadAttention(
            (out_proj): _LinearWithBias(in_features=256, out_features=256, bias=True)
          )
          (multihead_attn): DynamicConv_Plain(
            (dynamic_layer): Linear(in_features=256, out_features=32768, bias=True)
            (norm1): LayerNorm((64,), eps=1e-05, elementwise_affine=True)
            (norm2): LayerNorm((256,), eps=1e-05, elementwise_affine=True)
            (activation): ReLU(inplace=True)
            (out_layer): Linear(in_features=12544, out_features=256, bias=True)
            (norm3): LayerNorm((256,), eps=1e-05, elementwise_affine=True)
          )
          (linear1): Linear(in_features=256, out_features=2048, bias=True)
          (dropout): Dropout(p=0.1, inplace=False)
          (linear2): Linear(in_features=2048, out_features=256, bias=True)
          (norm1): LayerNorm((256,), eps=1e-05, elementwise_affine=True)
          (norm2): LayerNorm((256,), eps=1e-05, elementwise_affine=True)
          (norm3): LayerNorm((256,), eps=1e-05, elementwise_affine=True)
          (dropout1): Dropout(p=0.1, inplace=False)
          (dropout2): Dropout(p=0.1, inplace=False)
          (dropout3): Dropout(p=0.1, inplace=False)
          (conv_module): ModuleList()
          (cls_module): ModuleList(
            (0): Linear(in_features=256, out_features=256, bias=False)
            (1): LayerNorm((256,), eps=1e-05, elementwise_affine=True)
            (2): ReLU(inplace=True)
          )
          (reg_module): ModuleList(
            (0): Linear(in_features=256, out_features=256, bias=False)
            (1): LayerNorm((256,), eps=1e-05, elementwise_affine=True)
            (2): ReLU(inplace=True)
            (3): Linear(in_features=256, out_features=256, bias=False)
            (4): LayerNorm((256,), eps=1e-05, elementwise_affine=True)
            (5): ReLU(inplace=True)
            (6): Linear(in_features=256, out_features=256, bias=False)
            (7): LayerNorm((256,), eps=1e-05, elementwise_affine=True)
            (8): ReLU(inplace=True)
          )
          (class_logits): Linear(in_features=256, out_features=80, bias=True)
          (bboxes_delta): Linear(in_features=256, out_features=4, bias=True)
        )
        (3): RCNNHeadLayer(
          (self_attn): MultiheadAttention(
            (out_proj): _LinearWithBias(in_features=256, out_features=256, bias=True)
          )
          (multihead_attn): DynamicConv_Plain(
            (dynamic_layer): Linear(in_features=256, out_features=32768, bias=True)
            (norm1): LayerNorm((64,), eps=1e-05, elementwise_affine=True)
            (norm2): LayerNorm((256,), eps=1e-05, elementwise_affine=True)
            (activation): ReLU(inplace=True)
            (out_layer): Linear(in_features=12544, out_features=256, bias=True)
            (norm3): LayerNorm((256,), eps=1e-05, elementwise_affine=True)
          )
          (linear1): Linear(in_features=256, out_features=2048, bias=True)
          (dropout): Dropout(p=0.1, inplace=False)
          (linear2): Linear(in_features=2048, out_features=256, bias=True)
          (norm1): LayerNorm((256,), eps=1e-05, elementwise_affine=True)
          (norm2): LayerNorm((256,), eps=1e-05, elementwise_affine=True)
          (norm3): LayerNorm((256,), eps=1e-05, elementwise_affine=True)
          (dropout1): Dropout(p=0.1, inplace=False)
          (dropout2): Dropout(p=0.1, inplace=False)
          (dropout3): Dropout(p=0.1, inplace=False)
          (conv_module): ModuleList()
          (cls_module): ModuleList(
            (0): Linear(in_features=256, out_features=256, bias=False)
            (1): LayerNorm((256,), eps=1e-05, elementwise_affine=True)
            (2): ReLU(inplace=True)
          )
          (reg_module): ModuleList(
            (0): Linear(in_features=256, out_features=256, bias=False)
            (1): LayerNorm((256,), eps=1e-05, elementwise_affine=True)
            (2): ReLU(inplace=True)
            (3): Linear(in_features=256, out_features=256, bias=False)
            (4): LayerNorm((256,), eps=1e-05, elementwise_affine=True)
            (5): ReLU(inplace=True)
            (6): Linear(in_features=256, out_features=256, bias=False)
            (7): LayerNorm((256,), eps=1e-05, elementwise_affine=True)
            (8): ReLU(inplace=True)
          )
          (class_logits): Linear(in_features=256, out_features=80, bias=True)
          (bboxes_delta): Linear(in_features=256, out_features=4, bias=True)
        )
        (4): RCNNHeadLayer(
          (self_attn): MultiheadAttention(
            (out_proj): _LinearWithBias(in_features=256, out_features=256, bias=True)
          )
          (multihead_attn): DynamicConv_Plain(
            (dynamic_layer): Linear(in_features=256, out_features=32768, bias=True)
            (norm1): LayerNorm((64,), eps=1e-05, elementwise_affine=True)
            (norm2): LayerNorm((256,), eps=1e-05, elementwise_affine=True)
            (activation): ReLU(inplace=True)
            (out_layer): Linear(in_features=12544, out_features=256, bias=True)
            (norm3): LayerNorm((256,), eps=1e-05, elementwise_affine=True)
          )
          (linear1): Linear(in_features=256, out_features=2048, bias=True)
          (dropout): Dropout(p=0.1, inplace=False)
          (linear2): Linear(in_features=2048, out_features=256, bias=True)
          (norm1): LayerNorm((256,), eps=1e-05, elementwise_affine=True)
          (norm2): LayerNorm((256,), eps=1e-05, elementwise_affine=True)
          (norm3): LayerNorm((256,), eps=1e-05, elementwise_affine=True)
          (dropout1): Dropout(p=0.1, inplace=False)
          (dropout2): Dropout(p=0.1, inplace=False)
          (dropout3): Dropout(p=0.1, inplace=False)
          (conv_module): ModuleList()
          (cls_module): ModuleList(
            (0): Linear(in_features=256, out_features=256, bias=False)
            (1): LayerNorm((256,), eps=1e-05, elementwise_affine=True)
            (2): ReLU(inplace=True)
          )
          (reg_module): ModuleList(
            (0): Linear(in_features=256, out_features=256, bias=False)
            (1): LayerNorm((256,), eps=1e-05, elementwise_affine=True)
            (2): ReLU(inplace=True)
            (3): Linear(in_features=256, out_features=256, bias=False)
            (4): LayerNorm((256,), eps=1e-05, elementwise_affine=True)
            (5): ReLU(inplace=True)
            (6): Linear(in_features=256, out_features=256, bias=False)
            (7): LayerNorm((256,), eps=1e-05, elementwise_affine=True)
            (8): ReLU(inplace=True)
          )
          (class_logits): Linear(in_features=256, out_features=80, bias=True)
          (bboxes_delta): Linear(in_features=256, out_features=4, bias=True)
        )
        (5): RCNNHeadLayer(
          (self_attn): MultiheadAttention(
            (out_proj): _LinearWithBias(in_features=256, out_features=256, bias=True)
          )
          (multihead_attn): DynamicConv_Plain(
            (dynamic_layer): Linear(in_features=256, out_features=32768, bias=True)
            (norm1): LayerNorm((64,), eps=1e-05, elementwise_affine=True)
            (norm2): LayerNorm((256,), eps=1e-05, elementwise_affine=True)
            (activation): ReLU(inplace=True)
            (out_layer): Linear(in_features=12544, out_features=256, bias=True)
            (norm3): LayerNorm((256,), eps=1e-05, elementwise_affine=True)
          )
          (linear1): Linear(in_features=256, out_features=2048, bias=True)
          (dropout): Dropout(p=0.1, inplace=False)
          (linear2): Linear(in_features=2048, out_features=256, bias=True)
          (norm1): LayerNorm((256,), eps=1e-05, elementwise_affine=True)
          (norm2): LayerNorm((256,), eps=1e-05, elementwise_affine=True)
          (norm3): LayerNorm((256,), eps=1e-05, elementwise_affine=True)
          (dropout1): Dropout(p=0.1, inplace=False)
          (dropout2): Dropout(p=0.1, inplace=False)
          (dropout3): Dropout(p=0.1, inplace=False)
          (conv_module): ModuleList()
          (cls_module): ModuleList(
            (0): Linear(in_features=256, out_features=256, bias=False)
            (1): LayerNorm((256,), eps=1e-05, elementwise_affine=True)
            (2): ReLU(inplace=True)
          )
          (reg_module): ModuleList(
            (0): Linear(in_features=256, out_features=256, bias=False)
            (1): LayerNorm((256,), eps=1e-05, elementwise_affine=True)
            (2): ReLU(inplace=True)
            (3): Linear(in_features=256, out_features=256, bias=False)
            (4): LayerNorm((256,), eps=1e-05, elementwise_affine=True)
            (5): ReLU(inplace=True)
            (6): Linear(in_features=256, out_features=256, bias=False)
            (7): LayerNorm((256,), eps=1e-05, elementwise_affine=True)
            (8): ReLU(inplace=True)
          )
          (class_logits): Linear(in_features=256, out_features=80, bias=True)
          (bboxes_delta): Linear(in_features=256, out_features=4, bias=True)
        )
      )
    )
  )
  (criterion): SetCriterion(
    (matcher): HungarianMatcher()
  )
)
[11/20 17:58:23] fvcore.common.checkpoint INFO: Loading checkpoint from model_0309999.pth
[11/20 17:58:25] detectron2.data.datasets.coco INFO: Loaded 5000 images in COCO format from datasets/coco/annotations/instances_val2017.json
[11/20 17:58:25] detectron2.data.build INFO: Distribution of instances among all 80 categories:
…
  OPTIMIZER: ADAMW
  REFERENCE_WORLD_SIZE: 0
  STEPS: (280000, 333300)
  WARMUP_FACTOR: 0.01
  WARMUP_ITERS: 1000
  WARMUP_METHOD: linear
  WEIGHT_DECAY: 0.0001
  WEIGHT_DECAY_BIAS: 0.0001
  WEIGHT_DECAY_NORM: 0.0
TEST:
  AUG:
    ENABLED: False
    FLIP: True
    MAX_SIZE: 4000
    MIN_SIZES: (400, 500, 600, 700, 800, 900, 1000, 1100, 1200)
  DETECTIONS_PER_IMAGE: 100
  EVAL_PERIOD: 7330
  EXPECTED_RESULTS: []
  KEYPOINT_OKS_SIGMAS: []
  PRECISE_BN:
    ENABLED: False
    NUM_ITER: 200
VERSION: 2
VIS_PERIOD: 0
[11/21 00:13:34] detectron2.engine.defaults INFO: Model:
Detr(
  (backbone): FPN(
    (fpn_lateral2): Conv2d(256, 256, kernel_size=(1, 1), stride=(1, 1))
    (fpn_output2): Conv2d(256, 256, kernel_size=(3, 3), stride=(1, 1), padding=(1, 1))
    (fpn_lateral3): Conv2d(512, 256, kernel_size=(1, 1), stride=(1, 1))
    (fpn_output3): Conv2d(256, 256, kernel_size=(3, 3), stride=(1, 1), padding=(1, 1))
    (fpn_lateral4): Conv2d(1024, 256, kernel_size=(1, 1), stride=(1, 1))
    (fpn_output4): Conv2d(256, 256, kernel_size=(3, 3), stride=(1, 1), padding=(1, 1))
    (fpn_lateral5): Conv2d(2048, 256, kernel_size=(1, 1), stride=(1, 1))
    (fpn_output5): Conv2d(256, 256, kernel_size=(3, 3), stride=(1, 1), padding=(1, 1))
    (top_block): LastLevelMaxPool()
    (bottom_up): ResNet(
      (stem): BasicStem(
        (conv1): Conv2d(
          3, 64, kernel_size=(7, 7), stride=(2, 2), padding=(3, 3), bias=False
          (norm): FrozenBatchNorm2d(num_features=64, eps=1e-05)
        )
      )
      (res2): Sequential(
        (0): BottleneckBlock(
          (shortcut): Conv2d(
            64, 256, kernel_size=(1, 1), stride=(1, 1), bias=False
            (norm): FrozenBatchNorm2d(num_features=256, eps=1e-05)
          )
          (conv1): Conv2d(
            64, 64, kernel_size=(1, 1), stride=(1, 1), bias=False
            (norm): FrozenBatchNorm2d(num_features=64, eps=1e-05)
          )
          (conv2): Conv2d(
            64, 64, kernel_size=(3, 3), stride=(1, 1), padding=(1, 1), bias=False
            (norm): FrozenBatchNorm2d(num_features=64, eps=1e-05)
          )
          (conv3): Conv2d(
            64, 256, kernel_size=(1, 1), stride=(1, 1), bias=False
            (norm): FrozenBatchNorm2d(num_features=256, eps=1e-05)
          )
        )
        (1): BottleneckBlock(
          (conv1): Conv2d(
            256, 64, kernel_size=(1, 1), stride=(1, 1), bias=False
            (norm): FrozenBatchNorm2d(num_features=64, eps=1e-05)
          )
          (conv2): Conv2d(
            64, 64, kernel_size=(3, 3), stride=(1, 1), padding=(1, 1), bias=False
            (norm): FrozenBatchNorm2d(num_features=64, eps=1e-05)
          )
          (conv3): Conv2d(
            64, 256, kernel_size=(1, 1), stride=(1, 1), bias=False
            (norm): FrozenBatchNorm2d(num_features=256, eps=1e-05)
          )
        )
        (2): BottleneckBlock(
          (conv1): Conv2d(
            256, 64, kernel_size=(1, 1), stride=(1, 1), bias=False
            (norm): FrozenBatchNorm2d(num_features=64, eps=1e-05)
          )
          (conv2): Conv2d(
            64, 64, kernel_size=(3, 3), stride=(1, 1), padding=(1, 1), bias=False
            (norm): FrozenBatchNorm2d(num_features=64, eps=1e-05)
          )
          (conv3): Conv2d(
            64, 256, kernel_size=(1, 1), stride=(1, 1), bias=False
            (norm): FrozenBatchNorm2d(num_features=256, eps=1e-05)
          )
        )
      )
      (res3): Sequential(
        (0): BottleneckBlock(
          (shortcut): Conv2d(
            256, 512, kernel_size=(1, 1), stride=(2, 2), bias=False
            (norm): FrozenBatchNorm2d(num_features=512, eps=1e-05)
          )
          (conv1): Conv2d(
            256, 128, kernel_size=(1, 1), stride=(1, 1), bias=False
            (norm): FrozenBatchNorm2d(num_features=128, eps=1e-05)
          )
          (conv2): Conv2d(
            128, 128, kernel_size=(3, 3), stride=(2, 2), padding=(1, 1), bias=False
            (norm): FrozenBatchNorm2d(num_features=128, eps=1e-05)
          )
          (conv3): Conv2d(
            128, 512, kernel_size=(1, 1), stride=(1, 1), bias=False
            (norm): FrozenBatchNorm2d(num_features=512, eps=1e-05)
          )
        )
        (1): BottleneckBlock(
          (conv1): Conv2d(
            512, 128, kernel_size=(1, 1), stride=(1, 1), bias=False
            (norm): FrozenBatchNorm2d(num_features=128, eps=1e-05)
          )
          (conv2): Conv2d(
            128, 128, kernel_size=(3, 3), stride=(1, 1), padding=(1, 1), bias=False
            (norm): FrozenBatchNorm2d(num_features=128, eps=1e-05)
          )
          (conv3): Conv2d(
            128, 512, kernel_size=(1, 1), stride=(1, 1), bias=False
            (norm): FrozenBatchNorm2d(num_features=512, eps=1e-05)
          )
        )
        (2): BottleneckBlock(
          (conv1): Conv2d(
            512, 128, kernel_size=(1, 1), stride=(1, 1), bias=False
            (norm): FrozenBatchNorm2d(num_features=128, eps=1e-05)
          )
          (conv2): Conv2d(
            128, 128, kernel_size=(3, 3), stride=(1, 1), padding=(1, 1), bias=False
            (norm): FrozenBatchNorm2d(num_features=128, eps=1e-05)
          )
          (conv3): Conv2d(
            128, 512, kernel_size=(1, 1), stride=(1, 1), bias=False
            (norm): FrozenBatchNorm2d(num_features=512, eps=1e-05)
          )
        )
        (3): BottleneckBlock(
          (conv1): Conv2d(
            512, 128, kernel_size=(1, 1), stride=(1, 1), bias=False
            (norm): FrozenBatchNorm2d(num_features=128, eps=1e-05)
          )
          (conv2): Conv2d(
            128, 128, kernel_size=(3, 3), stride=(1, 1), padding=(1, 1), bias=False
            (norm): FrozenBatchNorm2d(num_features=128, eps=1e-05)
          )
          (conv3): Conv2d(
            128, 512, kernel_size=(1, 1), stride=(1, 1), bias=False
            (norm): FrozenBatchNorm2d(num_features=512, eps=1e-05)
          )
        )
      )
      (res4): Sequential(
        (0): BottleneckBlock(
          (shortcut): Conv2d(
            512, 1024, kernel_size=(1, 1), stride=(2, 2), bias=False
            (norm): FrozenBatchNorm2d(num_features=1024, eps=1e-05)
          )
          (conv1): Conv2d(
            512, 256, kernel_size=(1, 1), stride=(1, 1), bias=False
            (norm): FrozenBatchNorm2d(num_features=256, eps=1e-05)
          )
          (conv2): Conv2d(
            256, 256, kernel_size=(3, 3), stride=(2, 2), padding=(1, 1), bias=False
            (norm): FrozenBatchNorm2d(num_features=256, eps=1e-05)
          )
          (conv3): Conv2d(
            256, 1024, kernel_size=(1, 1), stride=(1, 1), bias=False
            (norm): FrozenBatchNorm2d(num_features=1024, eps=1e-05)
          )
        )
        (1): BottleneckBlock(
          (conv1): Conv2d(
            1024, 256, kernel_size=(1, 1), stride=(1, 1), bias=False
            (norm): FrozenBatchNorm2d(num_features=256, eps=1e-05)
          )
          (conv2): Conv2d(
            256, 256, kernel_size=(3, 3), stride=(1, 1), padding=(1, 1), bias=False
            (norm): FrozenBatchNorm2d(num_features=256, eps=1e-05)
          )
          (conv3): Conv2d(
            256, 1024, kernel_size=(1, 1), stride=(1, 1), bias=False
            (norm): FrozenBatchNorm2d(num_features=1024, eps=1e-05)
          )
        )
        (2): BottleneckBlock(
          (conv1): Conv2d(
            1024, 256, kernel_size=(1, 1), stride=(1, 1), bias=False
            (norm): FrozenBatchNorm2d(num_features=256, eps=1e-05)
          )
          (conv2): Conv2d(
            256, 256, kernel_size=(3, 3), stride=(1, 1), padding=(1, 1), bias=False
            (norm): FrozenBatchNorm2d(num_features=256, eps=1e-05)
          )
          (conv3): Conv2d(
            256, 1024, kernel_size=(1, 1), stride=(1, 1), bias=False
            (norm): FrozenBatchNorm2d(num_features=1024, eps=1e-05)
          )
        )
        (3): BottleneckBlock(
          (conv1): Conv2d(
            1024, 256, kernel_size=(1, 1), stride=(1, 1), bias=False
            (norm): FrozenBatchNorm2d(num_features=256, eps=1e-05)
          )
          (conv2): Conv2d(
            256, 256, kernel_size=(3, 3), stride=(1, 1), padding=(1, 1), bias=False
            (norm): FrozenBatchNorm2d(num_features=256, eps=1e-05)
          )
          (conv3): Conv2d(
            256, 1024, kernel_size=(1, 1), stride=(1, 1), bias=False
            (norm): FrozenBatchNorm2d(num_features=1024, eps=1e-05)
          )
        )
        (4): BottleneckBlock(
          (conv1): Conv2d(
            1024, 256, kernel_size=(1, 1), stride=(1, 1), bias=False
            (norm): FrozenBatchNorm2d(num_features=256, eps=1e-05)
          )
          (conv2): Conv2d(
            256, 256, kernel_size=(3, 3), stride=(1, 1), padding=(1, 1), bias=False
            (norm): FrozenBatchNorm2d(num_features=256, eps=1e-05)
          )
          (conv3): Conv2d(
            256, 1024, kernel_size=(1, 1), stride=(1, 1), bias=False
            (norm): FrozenBatchNorm2d(num_features=1024, eps=1e-05)
          )
        )
        (5): BottleneckBlock(
          (conv1): Conv2d(
            1024, 256, kernel_size=(1, 1), stride=(1, 1), bias=False
            (norm): FrozenBatchNorm2d(num_features=256, eps=1e-05)
          )
          (conv2): Conv2d(
            256, 256, kernel_size=(3, 3), stride=(1, 1), padding=(1, 1), bias=False
            (norm): FrozenBatchNorm2d(num_features=256, eps=1e-05)
          )
          (conv3): Conv2d(
            256, 1024, kernel_size=(1, 1), stride=(1, 1), bias=False
            (norm): FrozenBatchNorm2d(num_features=1024, eps=1e-05)
          )
        )
      )
      (res5): Sequential(
        (0): BottleneckBlock(
          (shortcut): Conv2d(
            1024, 2048, kernel_size=(1, 1), stride=(2, 2), bias=False
            (norm): FrozenBatchNorm2d(num_features=2048, eps=1e-05)
          )
          (conv1): Conv2d(
            1024, 512, kernel_size=(1, 1), stride=(1, 1), bias=False
            (norm): FrozenBatchNorm2d(num_features=512, eps=1e-05)
          )
          (conv2): Conv2d(
            512, 512, kernel_size=(3, 3), stride=(2, 2), padding=(1, 1), bias=False
            (norm): FrozenBatchNorm2d(num_features=512, eps=1e-05)
          )
          (conv3): Conv2d(
            512, 2048, kernel_size=(1, 1), stride=(1, 1), bias=False
            (norm): FrozenBatchNorm2d(num_features=2048, eps=1e-05)
          )
        )
        (1): BottleneckBlock(
          (conv1): Conv2d(
            2048, 512, kernel_size=(1, 1), stride=(1, 1), bias=False
            (norm): FrozenBatchNorm2d(num_features=512, eps=1e-05)
          )
          (conv2): Conv2d(
            512, 512, kernel_size=(3, 3), stride=(1, 1), padding=(1, 1), bias=False
            (norm): FrozenBatchNorm2d(num_features=512, eps=1e-05)
          )
          (conv3): Conv2d(
            512, 2048, kernel_size=(1, 1), stride=(1, 1), bias=False
            (norm): FrozenBatchNorm2d(num_features=2048, eps=1e-05)
          )
        )
        (2): BottleneckBlock(
          (conv1): Conv2d(
            2048, 512, kernel_size=(1, 1), stride=(1, 1), bias=False
            (norm): FrozenBatchNorm2d(num_features=512, eps=1e-05)
          )
          (conv2): Conv2d(
            512, 512, kernel_size=(3, 3), stride=(1, 1), padding=(1, 1), bias=False
            (norm): FrozenBatchNorm2d(num_features=512, eps=1e-05)
          )
          (conv3): Conv2d(
            512, 2048, kernel_size=(1, 1), stride=(1, 1), bias=False
            (norm): FrozenBatchNorm2d(num_features=2048, eps=1e-05)
          )
        )
      )
    )
  )
  (query_embed): Embedding(300, 256)
  (init_proposals): Embedding(300, 4)
  (RoITransformer): ROITransformer(
    (box_pooler): ROIPooler(
      (level_poolers): ModuleList(
        (0): ROIAlign(output_size=(7, 7), spatial_scale=0.25, sampling_ratio=2, aligned=True)
        (1): ROIAlign(output_size=(7, 7), spatial_scale=0.125, sampling_ratio=2, aligned=True)
        (2): ROIAlign(output_size=(7, 7), spatial_scale=0.0625, sampling_ratio=2, aligned=True)
        (3): ROIAlign(output_size=(7, 7), spatial_scale=0.03125, sampling_ratio=2, aligned=True)
      )
    )
    (decoder): ModuleList(
      (0): RCNNHeadLayer(
        (self_attn): MultiheadAttention(
          (out_proj): _LinearWithBias(in_features=256, out_features=256, bias=True)
        )
        (multihead_attn): DynamicConv(
          (dynamic_layer): Linear(in_features=256, out_features=32768, bias=True)
          (norm1): LayerNorm((64,), eps=1e-05, elementwise_affine=True)
          (norm2): LayerNorm((256,), eps=1e-05, elementwise_affine=True)
          (activation): ReLU(inplace=True)
          (out_layer): Linear(in_features=12544, out_features=256, bias=True)
          (norm3): LayerNorm((256,), eps=1e-05, elementwise_affine=True)
        )
        (linear1): Linear(in_features=256, out_features=2048, bias=True)
        (dropout): Dropout(p=0.1, inplace=False)
        (linear2): Linear(in_features=2048, out_features=256, bias=True)
        (norm1): LayerNorm((256,), eps=1e-05, elementwise_affine=True)
        (norm2): LayerNorm((256,), eps=1e-05, elementwise_affine=True)
        (norm3): LayerNorm((256,), eps=1e-05, elementwise_affine=True)
        (dropout1): Dropout(p=0.1, inplace=False)
        (dropout2): Dropout(p=0.1, inplace=False)
        (dropout3): Dropout(p=0.1, inplace=False)
        (cls_module): ModuleList(
          (0): Linear(in_features=256, out_features=256, bias=False)
          (1): LayerNorm((256,), eps=1e-05, elementwise_affine=True)
          (2): ReLU(inplace=True)
        )
        (reg_module): ModuleList(
          (0): Linear(in_features=256, out_features=256, bias=False)
          (1): LayerNorm((256,), eps=1e-05, elementwise_affine=True)
          (2): ReLU(inplace=True)
          (3): Linear(in_features=256, out_features=256, bias=False)
          (4): LayerNorm((256,), eps=1e-05, elementwise_affine=True)
          (5): ReLU(inplace=True)
          (6): Linear(in_features=256, out_features=256, bias=False)
          (7): LayerNorm((256,), eps=1e-05, elementwise_affine=True)
          (8): ReLU(inplace=True)
        )
        (class_logits): Linear(in_features=256, out_features=80, bias=True)
        (bboxes_delta): Linear(in_features=256, out_features=4, bias=True)
      )
      (1): RCNNHeadLayer(
        (self_attn): MultiheadAttention(
          (out_proj): _LinearWithBias(in_features=256, out_features=256, bias=True)
        )
        (multihead_attn): DynamicConv(
          (dynamic_layer): Linear(in_features=256, out_features=32768, bias=True)
          (norm1): LayerNorm((64,), eps=1e-05, elementwise_affine=True)
          (norm2): LayerNorm((256,), eps=1e-05, elementwise_affine=True)
          (activation): ReLU(inplace=True)
          (out_layer): Linear(in_features=12544, out_features=256, bias=True)
          (norm3): LayerNorm((256,), eps=1e-05, elementwise_affine=True)
        )
        (linear1): Linear(in_features=256, out_features=2048, bias=True)
        (dropout): Dropout(p=0.1, inplace=False)
        (linear2): Linear(in_features=2048, out_features=256, bias=True)
        (norm1): LayerNorm((256,), eps=1e-05, elementwise_affine=True)
        (norm2): LayerNorm((256,), eps=1e-05, elementwise_affine=True)
        (norm3): LayerNorm((256,), eps=1e-05, elementwise_affine=True)
        (dropout1): Dropout(p=0.1, inplace=False)
        (dropout2): Dropout(p=0.1, inplace=False)
        (dropout3): Dropout(p=0.1, inplace=False)
        (cls_module): ModuleList(
          (0): Linear(in_features=256, out_features=256, bias=False)
          (1): LayerNorm((256,), eps=1e-05, elementwise_affine=True)
          (2): ReLU(inplace=True)
        )
        (reg_module): ModuleList(
          (0): Linear(in_features=256, out_features=256, bias=False)
          (1): LayerNorm((256,), eps=1e-05, elementwise_affine=True)
          (2): ReLU(inplace=True)
          (3): Linear(in_features=256, out_features=256, bias=False)
          (4): LayerNorm((256,), eps=1e-05, elementwise_affine=True)
          (5): ReLU(inplace=True)
          (6): Linear(in_features=256, out_features=256, bias=False)
          (7): LayerNorm((256,), eps=1e-05, elementwise_affine=True)
          (8): ReLU(inplace=True)
        )
        (class_logits): Linear(in_features=256, out_features=80, bias=True)
        (bboxes_delta): Linear(in_features=256, out_features=4, bias=True)
      )
      (2): RCNNHeadLayer(
        (self_attn): MultiheadAttention(
          (out_proj): _LinearWithBias(in_features=256, out_features=256, bias=True)
        )
        (multihead_attn): DynamicConv(
          (dynamic_layer): Linear(in_features=256, out_features=32768, bias=True)
          (norm1): LayerNorm((64,), eps=1e-05, elementwise_affine=True)
          (norm2): LayerNorm((256,), eps=1e-05, elementwise_affine=True)
          (activation): ReLU(inplace=True)
          (out_layer): Linear(in_features=12544, out_features=256, bias=True)
          (norm3): LayerNorm((256,), eps=1e-05, elementwise_affine=True)
        )
        (linear1): Linear(in_features=256, out_features=2048, bias=True)
        (dropout): Dropout(p=0.1, inplace=False)
        (linear2): Linear(in_features=2048, out_features=256, bias=True)
        (norm1): LayerNorm((256,), eps=1e-05, elementwise_affine=True)
        (norm2): LayerNorm((256,), eps=1e-05, elementwise_affine=True)
        (norm3): LayerNorm((256,), eps=1e-05, elementwise_affine=True)
        (dropout1): Dropout(p=0.1, inplace=False)
        (dropout2): Dropout(p=0.1, inplace=False)
        (dropout3): Dropout(p=0.1, inplace=False)
        (cls_module): ModuleList(
          (0): Linear(in_features=256, out_features=256, bias=False)
          (1): LayerNorm((256,), eps=1e-05, elementwise_affine=True)
          (2): ReLU(inplace=True)
        )
        (reg_module): ModuleList(
          (0): Linear(in_features=256, out_features=256, bias=False)
          (1): LayerNorm((256,), eps=1e-05, elementwise_affine=True)
          (2): ReLU(inplace=True)
          (3): Linear(in_features=256, out_features=256, bias=False)
          (4): LayerNorm((256,), eps=1e-05, elementwise_affine=True)
          (5): ReLU(inplace=True)
          (6): Linear(in_features=256, out_features=256, bias=False)
          (7): LayerNorm((256,), eps=1e-05, elementwise_affine=True)
          (8): ReLU(inplace=True)
        )
        (class_logits): Linear(in_features=256, out_features=80, bias=True)
        (bboxes_delta): Linear(in_features=256, out_features=4, bias=True)
      )
      (3): RCNNHeadLayer(
        (self_attn): MultiheadAttention(
          (out_proj): _LinearWithBias(in_features=256, out_features=256, bias=True)
        )
        (multihead_attn): DynamicConv(
          (dynamic_layer): Linear(in_features=256, out_features=32768, bias=True)
          (norm1): LayerNorm((64,), eps=1e-05, elementwise_affine=True)
          (norm2): LayerNorm((256,), eps=1e-05, elementwise_affine=True)
          (activation): ReLU(inplace=True)
          (out_layer): Linear(in_features=12544, out_features=256, bias=True)
          (norm3): LayerNorm((256,), eps=1e-05, elementwise_affine=True)
        )
        (linear1): Linear(in_features=256, out_features=2048, bias=True)
        (dropout): Dropout(p=0.1, inplace=False)
        (linear2): Linear(in_features=2048, out_features=256, bias=True)
        (norm1): LayerNorm((256,), eps=1e-05, elementwise_affine=True)
        (norm2): LayerNorm((256,), eps=1e-05, elementwise_affine=True)
        (norm3): LayerNorm((256,), eps=1e-05, elementwise_affine=True)
        (dropout1): Dropout(p=0.1, inplace=False)
        (dropout2): Dropout(p=0.1, inplace=False)
        (dropout3): Dropout(p=0.1, inplace=False)
        (cls_module): ModuleList(
          (0): Linear(in_features=256, out_features=256, bias=False)
          (1): LayerNorm((256,), eps=1e-05, elementwise_affine=True)
          (2): ReLU(inplace=True)
        )
        (reg_module): ModuleList(
          (0): Linear(in_features=256, out_features=256, bias=False)
          (1): LayerNorm((256,), eps=1e-05, elementwise_affine=True)
          (2): ReLU(inplace=True)
          (3): Linear(in_features=256, out_features=256, bias=False)
          (4): LayerNorm((256,), eps=1e-05, elementwise_affine=True)
          (5): ReLU(inplace=True)
          (6): Linear(in_features=256, out_features=256, bias=False)
          (7): LayerNorm((256,), eps=1e-05, elementwise_affine=True)
          (8): ReLU(inplace=True)
        )
        (class_logits): Linear(in_features=256, out_features=80, bias=True)
        (bboxes_delta): Linear(in_features=256, out_features=4, bias=True)
      )
      (4): RCNNHeadLayer(
        (self_attn): MultiheadAttention(
          (out_proj): _LinearWithBias(in_features=256, out_features=256, bias=True)
        )
        (multihead_attn): DynamicConv(
          (dynamic_layer): Linear(in_features=256, out_features=32768, bias=True)
          (norm1): LayerNorm((64,), eps=1e-05, elementwise_affine=True)
          (norm2): LayerNorm((256,), eps=1e-05, elementwise_affine=True)
          (activation): ReLU(inplace=True)
          (out_layer): Linear(in_features=12544, out_features=256, bias=True)
          (norm3): LayerNorm((256,), eps=1e-05, elementwise_affine=True)
        )
        (linear1): Linear(in_features=256, out_features=2048, bias=True)
        (dropout): Dropout(p=0.1, inplace=False)
        (linear2): Linear(in_features=2048, out_features=256, bias=True)
        (norm1): LayerNorm((256,), eps=1e-05, elementwise_affine=True)
        (norm2): LayerNorm((256,), eps=1e-05, elementwise_affine=True)
        (norm3): LayerNorm((256,), eps=1e-05, elementwise_affine=True)
        (dropout1): Dropout(p=0.1, inplace=False)
        (dropout2): Dropout(p=0.1, inplace=False)
        (dropout3): Dropout(p=0.1, inplace=False)
        (cls_module): ModuleList(
          (0): Linear(in_features=256, out_features=256, bias=False)
          (1): LayerNorm((256,), eps=1e-05, elementwise_affine=True)
          (2): ReLU(inplace=True)
        )
        (reg_module): ModuleList(
          (0): Linear(in_features=256, out_features=256, bias=False)
          (1): LayerNorm((256,), eps=1e-05, elementwise_affine=True)
          (2): ReLU(inplace=True)
          (3): Linear(in_features=256, out_features=256, bias=False)
          (4): LayerNorm((256,), eps=1e-05, elementwise_affine=True)
          (5): ReLU(inplace=True)
          (6): Linear(in_features=256, out_features=256, bias=False)
          (7): LayerNorm((256,), eps=1e-05, elementwise_affine=True)
          (8): ReLU(inplace=True)
        )
        (class_logits): Linear(in_features=256, out_features=80, bias=True)
        (bboxes_delta): Linear(in_features=256, out_features=4, bias=True)
      )
      (5): RCNNHeadLayer(
        (self_attn): MultiheadAttention(
          (out_proj): _LinearWithBias(in_features=256, out_features=256, bias=True)
        )
        (multihead_attn): DynamicConv(
          (dynamic_layer): Linear(in_features=256, out_features=32768, bias=True)
          (norm1): LayerNorm((64,), eps=1e-05, elementwise_affine=True)
          (norm2): LayerNorm((256,), eps=1e-05, elementwise_affine=True)
          (activation): ReLU(inplace=True)
          (out_layer): Linear(in_features=12544, out_features=256, bias=True)
          (norm3): LayerNorm((256,), eps=1e-05, elementwise_affine=True)
        )
        (linear1): Linear(in_features=256, out_features=2048, bias=True)
        (dropout): Dropout(p=0.1, inplace=False)
        (linear2): Linear(in_features=2048, out_features=256, bias=True)
        (norm1): LayerNorm((256,), eps=1e-05, elementwise_affine=True)
        (norm2): LayerNorm((256,), eps=1e-05, elementwise_affine=True)
        (norm3): LayerNorm((256,), eps=1e-05, elementwise_affine=True)
        (dropout1): Dropout(p=0.1, inplace=False)
        (dropout2): Dropout(p=0.1, inplace=False)
        (dropout3): Dropout(p=0.1, inplace=False)
        (cls_module): ModuleList(
          (0): Linear(in_features=256, out_features=256, bias=False)
          (1): LayerNorm((256,), eps=1e-05, elementwise_affine=True)
          (2): ReLU(inplace=True)
        )
        (reg_module): ModuleList(
          (0): Linear(in_features=256, out_features=256, bias=False)
          (1): LayerNorm((256,), eps=1e-05, elementwise_affine=True)
          (2): ReLU(inplace=True)
          (3): Linear(in_features=256, out_features=256, bias=False)
          (4): LayerNorm((256,), eps=1e-05, elementwise_affine=True)
          (5): ReLU(inplace=True)
          (6): Linear(in_features=256, out_features=256, bias=False)
          (7): LayerNorm((256,), eps=1e-05, elementwise_affine=True)
          (8): ReLU(inplace=True)
        )
        (class_logits): Linear(in_features=256, out_features=80, bias=True)
        (bboxes_delta): Linear(in_features=256, out_features=4, bias=True)
      )
    )
  )
  (criterion): SetCriterion(
    (matcher): HungarianMatcher()
  )
)
[11/21 00:13:34] fvcore.common.checkpoint INFO: Loading checkpoint from baseline.pth
[11/21 00:13:35] fvcore.common.checkpoint INFO: Some model parameters or buffers are not found in the checkpoint:
  [34mbackbone.bottom_up.res3.3.conv1.weight[0m
  [34mbackbone.fpn_lateral5.{bias, weight}[0m
…
  REFERENCE_WORLD_SIZE: 0
  STEPS: (210000, 250000)
  WARMUP_FACTOR: 0.01
  WARMUP_ITERS: 1000
  WARMUP_METHOD: linear
  WEIGHT_DECAY: 0.0001
  WEIGHT_DECAY_BIAS: 0.0001
  WEIGHT_DECAY_NORM: 0.0
TEST:
  AUG:
    ENABLED: False
    FLIP: True
    MAX_SIZE: 4000
    MIN_SIZES: (400, 500, 600, 700, 800, 900, 1000, 1100, 1200)
  DETECTIONS_PER_IMAGE: 100
  EVAL_PERIOD: 7330
  EXPECTED_RESULTS: []
  KEYPOINT_OKS_SIGMAS: []
  PRECISE_BN:
    ENABLED: False
    NUM_ITER: 200
VERSION: 2
VIS_PERIOD: 0
[11/21 02:10:21] detectron2.engine.defaults INFO: Model:
SparseRCNN(
  (backbone): FPN(
    (fpn_lateral2): Conv2d(256, 256, kernel_size=(1, 1), stride=(1, 1))
    (fpn_output2): Conv2d(256, 256, kernel_size=(3, 3), stride=(1, 1), padding=(1, 1))
    (fpn_lateral3): Conv2d(512, 256, kernel_size=(1, 1), stride=(1, 1))
    (fpn_output3): Conv2d(256, 256, kernel_size=(3, 3), stride=(1, 1), padding=(1, 1))
    (fpn_lateral4): Conv2d(1024, 256, kernel_size=(1, 1), stride=(1, 1))
    (fpn_output4): Conv2d(256, 256, kernel_size=(3, 3), stride=(1, 1), padding=(1, 1))
    (fpn_lateral5): Conv2d(2048, 256, kernel_size=(1, 1), stride=(1, 1))
    (fpn_output5): Conv2d(256, 256, kernel_size=(3, 3), stride=(1, 1), padding=(1, 1))
    (top_block): LastLevelMaxPool()
    (bottom_up): ResNet(
      (stem): BasicStem(
        (conv1): Conv2d(
          3, 64, kernel_size=(7, 7), stride=(2, 2), padding=(3, 3), bias=False
          (norm): FrozenBatchNorm2d(num_features=64, eps=1e-05)
        )
      )
      (res2): Sequential(
        (0): BottleneckBlock(
          (shortcut): Conv2d(
            64, 256, kernel_size=(1, 1), stride=(1, 1), bias=False
            (norm): FrozenBatchNorm2d(num_features=256, eps=1e-05)
          )
          (conv1): Conv2d(
            64, 64, kernel_size=(1, 1), stride=(1, 1), bias=False
            (norm): FrozenBatchNorm2d(num_features=64, eps=1e-05)
          )
          (conv2): Conv2d(
            64, 64, kernel_size=(3, 3), stride=(1, 1), padding=(1, 1), bias=False
            (norm): FrozenBatchNorm2d(num_features=64, eps=1e-05)
          )
          (conv3): Conv2d(
            64, 256, kernel_size=(1, 1), stride=(1, 1), bias=False
            (norm): FrozenBatchNorm2d(num_features=256, eps=1e-05)
          )
        )
        (1): BottleneckBlock(
          (conv1): Conv2d(
            256, 64, kernel_size=(1, 1), stride=(1, 1), bias=False
            (norm): FrozenBatchNorm2d(num_features=64, eps=1e-05)
          )
          (conv2): Conv2d(
            64, 64, kernel_size=(3, 3), stride=(1, 1), padding=(1, 1), bias=False
            (norm): FrozenBatchNorm2d(num_features=64, eps=1e-05)
          )
          (conv3): Conv2d(
            64, 256, kernel_size=(1, 1), stride=(1, 1), bias=False
            (norm): FrozenBatchNorm2d(num_features=256, eps=1e-05)
          )
        )
        (2): BottleneckBlock(
          (conv1): Conv2d(
            256, 64, kernel_size=(1, 1), stride=(1, 1), bias=False
            (norm): FrozenBatchNorm2d(num_features=64, eps=1e-05)
          )
          (conv2): Conv2d(
            64, 64, kernel_size=(3, 3), stride=(1, 1), padding=(1, 1), bias=False
            (norm): FrozenBatchNorm2d(num_features=64, eps=1e-05)
          )
          (conv3): Conv2d(
            64, 256, kernel_size=(1, 1), stride=(1, 1), bias=False
            (norm): FrozenBatchNorm2d(num_features=256, eps=1e-05)
          )
        )
      )
      (res3): Sequential(
        (0): BottleneckBlock(
          (shortcut): Conv2d(
            256, 512, kernel_size=(1, 1), stride=(2, 2), bias=False
            (norm): FrozenBatchNorm2d(num_features=512, eps=1e-05)
          )
          (conv1): Conv2d(
            256, 128, kernel_size=(1, 1), stride=(1, 1), bias=False
            (norm): FrozenBatchNorm2d(num_features=128, eps=1e-05)
          )
          (conv2): Conv2d(
            128, 128, kernel_size=(3, 3), stride=(2, 2), padding=(1, 1), bias=False
            (norm): FrozenBatchNorm2d(num_features=128, eps=1e-05)
          )
          (conv3): Conv2d(
            128, 512, kernel_size=(1, 1), stride=(1, 1), bias=False
            (norm): FrozenBatchNorm2d(num_features=512, eps=1e-05)
          )
        )
        (1): BottleneckBlock(
          (conv1): Conv2d(
            512, 128, kernel_size=(1, 1), stride=(1, 1), bias=False
            (norm): FrozenBatchNorm2d(num_features=128, eps=1e-05)
          )
          (conv2): Conv2d(
            128, 128, kernel_size=(3, 3), stride=(1, 1), padding=(1, 1), bias=False
            (norm): FrozenBatchNorm2d(num_features=128, eps=1e-05)
          )
          (conv3): Conv2d(
            128, 512, kernel_size=(1, 1), stride=(1, 1), bias=False
            (norm): FrozenBatchNorm2d(num_features=512, eps=1e-05)
          )
        )
        (2): BottleneckBlock(
          (conv1): Conv2d(
            512, 128, kernel_size=(1, 1), stride=(1, 1), bias=False
            (norm): FrozenBatchNorm2d(num_features=128, eps=1e-05)
          )
          (conv2): Conv2d(
            128, 128, kernel_size=(3, 3), stride=(1, 1), padding=(1, 1), bias=False
            (norm): FrozenBatchNorm2d(num_features=128, eps=1e-05)
          )
          (conv3): Conv2d(
            128, 512, kernel_size=(1, 1), stride=(1, 1), bias=False
            (norm): FrozenBatchNorm2d(num_features=512, eps=1e-05)
          )
        )
        (3): BottleneckBlock(
          (conv1): Conv2d(
            512, 128, kernel_size=(1, 1), stride=(1, 1), bias=False
            (norm): FrozenBatchNorm2d(num_features=128, eps=1e-05)
          )
          (conv2): Conv2d(
            128, 128, kernel_size=(3, 3), stride=(1, 1), padding=(1, 1), bias=False
            (norm): FrozenBatchNorm2d(num_features=128, eps=1e-05)
          )
          (conv3): Conv2d(
            128, 512, kernel_size=(1, 1), stride=(1, 1), bias=False
            (norm): FrozenBatchNorm2d(num_features=512, eps=1e-05)
          )
        )
      )
      (res4): Sequential(
        (0): BottleneckBlock(
          (shortcut): Conv2d(
            512, 1024, kernel_size=(1, 1), stride=(2, 2), bias=False
            (norm): FrozenBatchNorm2d(num_features=1024, eps=1e-05)
          )
          (conv1): Conv2d(
            512, 256, kernel_size=(1, 1), stride=(1, 1), bias=False
            (norm): FrozenBatchNorm2d(num_features=256, eps=1e-05)
          )
          (conv2): Conv2d(
            256, 256, kernel_size=(3, 3), stride=(2, 2), padding=(1, 1), bias=False
            (norm): FrozenBatchNorm2d(num_features=256, eps=1e-05)
          )
          (conv3): Conv2d(
            256, 1024, kernel_size=(1, 1), stride=(1, 1), bias=False
            (norm): FrozenBatchNorm2d(num_features=1024, eps=1e-05)
          )
        )
        (1): BottleneckBlock(
          (conv1): Conv2d(
            1024, 256, kernel_size=(1, 1), stride=(1, 1), bias=False
            (norm): FrozenBatchNorm2d(num_features=256, eps=1e-05)
          )
          (conv2): Conv2d(
            256, 256, kernel_size=(3, 3), stride=(1, 1), padding=(1, 1), bias=False
            (norm): FrozenBatchNorm2d(num_features=256, eps=1e-05)
          )
          (conv3): Conv2d(
            256, 1024, kernel_size=(1, 1), stride=(1, 1), bias=False
            (norm): FrozenBatchNorm2d(num_features=1024, eps=1e-05)
          )
        )
        (2): BottleneckBlock(
          (conv1): Conv2d(
            1024, 256, kernel_size=(1, 1), stride=(1, 1), bias=False
            (norm): FrozenBatchNorm2d(num_features=256, eps=1e-05)
          )
          (conv2): Conv2d(
            256, 256, kernel_size=(3, 3), stride=(1, 1), padding=(1, 1), bias=False
            (norm): FrozenBatchNorm2d(num_features=256, eps=1e-05)
          )
          (conv3): Conv2d(
            256, 1024, kernel_size=(1, 1), stride=(1, 1), bias=False
            (norm): FrozenBatchNorm2d(num_features=1024, eps=1e-05)
          )
        )
        (3): BottleneckBlock(
          (conv1): Conv2d(
            1024, 256, kernel_size=(1, 1), stride=(1, 1), bias=False
            (norm): FrozenBatchNorm2d(num_features=256, eps=1e-05)
          )
          (conv2): Conv2d(
            256, 256, kernel_size=(3, 3), stride=(1, 1), padding=(1, 1), bias=False
            (norm): FrozenBatchNorm2d(num_features=256, eps=1e-05)
          )
          (conv3): Conv2d(
            256, 1024, kernel_size=(1, 1), stride=(1, 1), bias=False
            (norm): FrozenBatchNorm2d(num_features=1024, eps=1e-05)
          )
        )
        (4): BottleneckBlock(
          (conv1): Conv2d(
            1024, 256, kernel_size=(1, 1), stride=(1, 1), bias=False
            (norm): FrozenBatchNorm2d(num_features=256, eps=1e-05)
          )
          (conv2): Conv2d(
            256, 256, kernel_size=(3, 3), stride=(1, 1), padding=(1, 1), bias=False
            (norm): FrozenBatchNorm2d(num_features=256, eps=1e-05)
          )
          (conv3): Conv2d(
            256, 1024, kernel_size=(1, 1), stride=(1, 1), bias=False
            (norm): FrozenBatchNorm2d(num_features=1024, eps=1e-05)
          )
        )
        (5): BottleneckBlock(
          (conv1): Conv2d(
            1024, 256, kernel_size=(1, 1), stride=(1, 1), bias=False
            (norm): FrozenBatchNorm2d(num_features=256, eps=1e-05)
          )
          (conv2): Conv2d(
            256, 256, kernel_size=(3, 3), stride=(1, 1), padding=(1, 1), bias=False
            (norm): FrozenBatchNorm2d(num_features=256, eps=1e-05)
          )
          (conv3): Conv2d(
            256, 1024, kernel_size=(1, 1), stride=(1, 1), bias=False
            (norm): FrozenBatchNorm2d(num_features=1024, eps=1e-05)
          )
        )
      )
      (res5): Sequential(
        (0): BottleneckBlock(
          (shortcut): Conv2d(
            1024, 2048, kernel_size=(1, 1), stride=(2, 2), bias=False
            (norm): FrozenBatchNorm2d(num_features=2048, eps=1e-05)
          )
          (conv1): Conv2d(
            1024, 512, kernel_size=(1, 1), stride=(1, 1), bias=False
            (norm): FrozenBatchNorm2d(num_features=512, eps=1e-05)
          )
          (conv2): Conv2d(
            512, 512, kernel_size=(3, 3), stride=(2, 2), padding=(1, 1), bias=False
            (norm): FrozenBatchNorm2d(num_features=512, eps=1e-05)
          )
          (conv3): Conv2d(
            512, 2048, kernel_size=(1, 1), stride=(1, 1), bias=False
            (norm): FrozenBatchNorm2d(num_features=2048, eps=1e-05)
          )
        )
        (1): BottleneckBlock(
          (conv1): Conv2d(
            2048, 512, kernel_size=(1, 1), stride=(1, 1), bias=False
            (norm): FrozenBatchNorm2d(num_features=512, eps=1e-05)
          )
          (conv2): Conv2d(
            512, 512, kernel_size=(3, 3), stride=(1, 1), padding=(1, 1), bias=False
            (norm): FrozenBatchNorm2d(num_features=512, eps=1e-05)
          )
          (conv3): Conv2d(
            512, 2048, kernel_size=(1, 1), stride=(1, 1), bias=False
            (norm): FrozenBatchNorm2d(num_features=2048, eps=1e-05)
          )
        )
        (2): BottleneckBlock(
          (conv1): Conv2d(
            2048, 512, kernel_size=(1, 1), stride=(1, 1), bias=False
            (norm): FrozenBatchNorm2d(num_features=512, eps=1e-05)
          )
          (conv2): Conv2d(
            512, 512, kernel_size=(3, 3), stride=(1, 1), padding=(1, 1), bias=False
            (norm): FrozenBatchNorm2d(num_features=512, eps=1e-05)
          )
          (conv3): Conv2d(
            512, 2048, kernel_size=(1, 1), stride=(1, 1), bias=False
            (norm): FrozenBatchNorm2d(num_features=2048, eps=1e-05)
          )
        )
      )
    )
  )
  (query_embed): Embedding(100, 256)
  (init_proposals): Embedding(100, 4)
  (RoITransformer): DynamicHead(
    (box_pooler): ROIPooler(
      (level_poolers): ModuleList(
        (0): ROIAlign(output_size=(7, 7), spatial_scale=0.25, sampling_ratio=2, aligned=True)
        (1): ROIAlign(output_size=(7, 7), spatial_scale=0.125, sampling_ratio=2, aligned=True)
        (2): ROIAlign(output_size=(7, 7), spatial_scale=0.0625, sampling_ratio=2, aligned=True)
        (3): ROIAlign(output_size=(7, 7), spatial_scale=0.03125, sampling_ratio=2, aligned=True)
      )
    )
    (decoder): ModuleList(
      (0): RCNNHead(
        (self_attn): MultiheadAttention(
          (out_proj): _LinearWithBias(in_features=256, out_features=256, bias=True)
        )
        (multihead_attn): DynamicConv(
          (dynamic_layer): Linear(in_features=256, out_features=32768, bias=True)
          (norm1): LayerNorm((64,), eps=1e-05, elementwise_affine=True)
          (norm2): LayerNorm((256,), eps=1e-05, elementwise_affine=True)
          (activation): ReLU(inplace=True)
          (out_layer): Linear(in_features=12544, out_features=256, bias=True)
          (norm3): LayerNorm((256,), eps=1e-05, elementwise_affine=True)
        )
        (linear1): Linear(in_features=256, out_features=2048, bias=True)
        (dropout): Dropout(p=0.1, inplace=False)
        (linear2): Linear(in_features=2048, out_features=256, bias=True)
        (norm1): LayerNorm((256,), eps=1e-05, elementwise_affine=True)
        (norm2): LayerNorm((256,), eps=1e-05, elementwise_affine=True)
        (norm3): LayerNorm((256,), eps=1e-05, elementwise_affine=True)
        (dropout1): Dropout(p=0.1, inplace=False)
        (dropout2): Dropout(p=0.1, inplace=False)
        (dropout3): Dropout(p=0.1, inplace=False)
        (cls_module): ModuleList(
          (0): Linear(in_features=256, out_features=256, bias=False)
          (1): LayerNorm((256,), eps=1e-05, elementwise_affine=True)
          (2): ReLU(inplace=True)
        )
        (reg_module): ModuleList(
          (0): Linear(in_features=256, out_features=256, bias=False)
          (1): LayerNorm((256,), eps=1e-05, elementwise_affine=True)
          (2): ReLU(inplace=True)
          (3): Linear(in_features=256, out_features=256, bias=False)
          (4): LayerNorm((256,), eps=1e-05, elementwise_affine=True)
          (5): ReLU(inplace=True)
          (6): Linear(in_features=256, out_features=256, bias=False)
          (7): LayerNorm((256,), eps=1e-05, elementwise_affine=True)
          (8): ReLU(inplace=True)
        )
        (class_logits): Linear(in_features=256, out_features=80, bias=True)
        (bboxes_delta): Linear(in_features=256, out_features=4, bias=True)
      )
      (1): RCNNHead(
        (self_attn): MultiheadAttention(
          (out_proj): _LinearWithBias(in_features=256, out_features=256, bias=True)
        )
        (multihead_attn): DynamicConv(
          (dynamic_layer): Linear(in_features=256, out_features=32768, bias=True)
          (norm1): LayerNorm((64,), eps=1e-05, elementwise_affine=True)
          (norm2): LayerNorm((256,), eps=1e-05, elementwise_affine=True)
          (activation): ReLU(inplace=True)
          (out_layer): Linear(in_features=12544, out_features=256, bias=True)
          (norm3): LayerNorm((256,), eps=1e-05, elementwise_affine=True)
        )
        (linear1): Linear(in_features=256, out_features=2048, bias=True)
        (dropout): Dropout(p=0.1, inplace=False)
        (linear2): Linear(in_features=2048, out_features=256, bias=True)
        (norm1): LayerNorm((256,), eps=1e-05, elementwise_affine=True)
        (norm2): LayerNorm((256,), eps=1e-05, elementwise_affine=True)
        (norm3): LayerNorm((256,), eps=1e-05, elementwise_affine=True)
        (dropout1): Dropout(p=0.1, inplace=False)
        (dropout2): Dropout(p=0.1, inplace=False)
        (dropout3): Dropout(p=0.1, inplace=False)
        (cls_module): ModuleList(
          (0): Linear(in_features=256, out_features=256, bias=False)
          (1): LayerNorm((256,), eps=1e-05, elementwise_affine=True)
          (2): ReLU(inplace=True)
        )
        (reg_module): ModuleList(
          (0): Linear(in_features=256, out_features=256, bias=False)
          (1): LayerNorm((256,), eps=1e-05, elementwise_affine=True)
          (2): ReLU(inplace=True)
          (3): Linear(in_features=256, out_features=256, bias=False)
          (4): LayerNorm((256,), eps=1e-05, elementwise_affine=True)
          (5): ReLU(inplace=True)
          (6): Linear(in_features=256, out_features=256, bias=False)
          (7): LayerNorm((256,), eps=1e-05, elementwise_affine=True)
          (8): ReLU(inplace=True)
        )
        (class_logits): Linear(in_features=256, out_features=80, bias=True)
        (bboxes_delta): Linear(in_features=256, out_features=4, bias=True)
      )
      (2): RCNNHead(
        (self_attn): MultiheadAttention(
          (out_proj): _LinearWithBias(in_features=256, out_features=256, bias=True)
        )
        (multihead_attn): DynamicConv(
          (dynamic_layer): Linear(in_features=256, out_features=32768, bias=True)
          (norm1): LayerNorm((64,), eps=1e-05, elementwise_affine=True)
          (norm2): LayerNorm((256,), eps=1e-05, elementwise_affine=True)
          (activation): ReLU(inplace=True)
          (out_layer): Linear(in_features=12544, out_features=256, bias=True)
          (norm3): LayerNorm((256,), eps=1e-05, elementwise_affine=True)
        )
        (linear1): Linear(in_features=256, out_features=2048, bias=True)
        (dropout): Dropout(p=0.1, inplace=False)
        (linear2): Linear(in_features=2048, out_features=256, bias=True)
        (norm1): LayerNorm((256,), eps=1e-05, elementwise_affine=True)
        (norm2): LayerNorm((256,), eps=1e-05, elementwise_affine=True)
        (norm3): LayerNorm((256,), eps=1e-05, elementwise_affine=True)
        (dropout1): Dropout(p=0.1, inplace=False)
        (dropout2): Dropout(p=0.1, inplace=False)
        (dropout3): Dropout(p=0.1, inplace=False)
        (cls_module): ModuleList(
          (0): Linear(in_features=256, out_features=256, bias=False)
          (1): LayerNorm((256,), eps=1e-05, elementwise_affine=True)
          (2): ReLU(inplace=True)
        )
        (reg_module): ModuleList(
          (0): Linear(in_features=256, out_features=256, bias=False)
          (1): LayerNorm((256,), eps=1e-05, elementwise_affine=True)
          (2): ReLU(inplace=True)
          (3): Linear(in_features=256, out_features=256, bias=False)
          (4): LayerNorm((256,), eps=1e-05, elementwise_affine=True)
          (5): ReLU(inplace=True)
          (6): Linear(in_features=256, out_features=256, bias=False)
          (7): LayerNorm((256,), eps=1e-05, elementwise_affine=True)
          (8): ReLU(inplace=True)
        )
        (class_logits): Linear(in_features=256, out_features=80, bias=True)
        (bboxes_delta): Linear(in_features=256, out_features=4, bias=True)
      )
      (3): RCNNHead(
        (self_attn): MultiheadAttention(
          (out_proj): _LinearWithBias(in_features=256, out_features=256, bias=True)
        )
        (multihead_attn): DynamicConv(
          (dynamic_layer): Linear(in_features=256, out_features=32768, bias=True)
          (norm1): LayerNorm((64,), eps=1e-05, elementwise_affine=True)
          (norm2): LayerNorm((256,), eps=1e-05, elementwise_affine=True)
          (activation): ReLU(inplace=True)
          (out_layer): Linear(in_features=12544, out_features=256, bias=True)
          (norm3): LayerNorm((256,), eps=1e-05, elementwise_affine=True)
        )
        (linear1): Linear(in_features=256, out_features=2048, bias=True)
        (dropout): Dropout(p=0.1, inplace=False)
        (linear2): Linear(in_features=2048, out_features=256, bias=True)
        (norm1): LayerNorm((256,), eps=1e-05, elementwise_affine=True)
        (norm2): LayerNorm((256,), eps=1e-05, elementwise_affine=True)
        (norm3): LayerNorm((256,), eps=1e-05, elementwise_affine=True)
        (dropout1): Dropout(p=0.1, inplace=False)
        (dropout2): Dropout(p=0.1, inplace=False)
        (dropout3): Dropout(p=0.1, inplace=False)
        (cls_module): ModuleList(
          (0): Linear(in_features=256, out_features=256, bias=False)
          (1): LayerNorm((256,), eps=1e-05, elementwise_affine=True)
          (2): ReLU(inplace=True)
        )
        (reg_module): ModuleList(
          (0): Linear(in_features=256, out_features=256, bias=False)
          (1): LayerNorm((256,), eps=1e-05, elementwise_affine=True)
          (2): ReLU(inplace=True)
          (3): Linear(in_features=256, out_features=256, bias=False)
          (4): LayerNorm((256,), eps=1e-05, elementwise_affine=True)
          (5): ReLU(inplace=True)
          (6): Linear(in_features=256, out_features=256, bias=False)
          (7): LayerNorm((256,), eps=1e-05, elementwise_affine=True)
          (8): ReLU(inplace=True)
        )
        (class_logits): Linear(in_features=256, out_features=80, bias=True)
        (bboxes_delta): Linear(in_features=256, out_features=4, bias=True)
      )
      (4): RCNNHead(
        (self_attn): MultiheadAttention(
          (out_proj): _LinearWithBias(in_features=256, out_features=256, bias=True)
        )
        (multihead_attn): DynamicConv(
          (dynamic_layer): Linear(in_features=256, out_features=32768, bias=True)
          (norm1): LayerNorm((64,), eps=1e-05, elementwise_affine=True)
          (norm2): LayerNorm((256,), eps=1e-05, elementwise_affine=True)
          (activation): ReLU(inplace=True)
          (out_layer): Linear(in_features=12544, out_features=256, bias=True)
          (norm3): LayerNorm((256,), eps=1e-05, elementwise_affine=True)
        )
        (linear1): Linear(in_features=256, out_features=2048, bias=True)
        (dropout): Dropout(p=0.1, inplace=False)
        (linear2): Linear(in_features=2048, out_features=256, bias=True)
        (norm1): LayerNorm((256,), eps=1e-05, elementwise_affine=True)
        (norm2): LayerNorm((256,), eps=1e-05, elementwise_affine=True)
        (norm3): LayerNorm((256,), eps=1e-05, elementwise_affine=True)
        (dropout1): Dropout(p=0.1, inplace=False)
        (dropout2): Dropout(p=0.1, inplace=False)
        (dropout3): Dropout(p=0.1, inplace=False)
        (cls_module): ModuleList(
          (0): Linear(in_features=256, out_features=256, bias=False)
          (1): LayerNorm((256,), eps=1e-05, elementwise_affine=True)
          (2): ReLU(inplace=True)
        )
        (reg_module): ModuleList(
          (0): Linear(in_features=256, out_features=256, bias=False)
          (1): LayerNorm((256,), eps=1e-05, elementwise_affine=True)
          (2): ReLU(inplace=True)
          (3): Linear(in_features=256, out_features=256, bias=False)
          (4): LayerNorm((256,), eps=1e-05, elementwise_affine=True)
          (5): ReLU(inplace=True)
          (6): Linear(in_features=256, out_features=256, bias=False)
          (7): LayerNorm((256,), eps=1e-05, elementwise_affine=True)
          (8): ReLU(inplace=True)
        )
        (class_logits): Linear(in_features=256, out_features=80, bias=True)
        (bboxes_delta): Linear(in_features=256, out_features=4, bias=True)
      )
      (5): RCNNHead(
        (self_attn): MultiheadAttention(
          (out_proj): _LinearWithBias(in_features=256, out_features=256, bias=True)
        )
        (multihead_attn): DynamicConv(
          (dynamic_layer): Linear(in_features=256, out_features=32768, bias=True)
          (norm1): LayerNorm((64,), eps=1e-05, elementwise_affine=True)
          (norm2): LayerNorm((256,), eps=1e-05, elementwise_affine=True)
          (activation): ReLU(inplace=True)
          (out_layer): Linear(in_features=12544, out_features=256, bias=True)
          (norm3): LayerNorm((256,), eps=1e-05, elementwise_affine=True)
        )
        (linear1): Linear(in_features=256, out_features=2048, bias=True)
        (dropout): Dropout(p=0.1, inplace=False)
        (linear2): Linear(in_features=2048, out_features=256, bias=True)
        (norm1): LayerNorm((256,), eps=1e-05, elementwise_affine=True)
        (norm2): LayerNorm((256,), eps=1e-05, elementwise_affine=True)
        (norm3): LayerNorm((256,), eps=1e-05, elementwise_affine=True)
        (dropout1): Dropout(p=0.1, inplace=False)
        (dropout2): Dropout(p=0.1, inplace=False)
        (dropout3): Dropout(p=0.1, inplace=False)
        (cls_module): ModuleList(
          (0): Linear(in_features=256, out_features=256, bias=False)
          (1): LayerNorm((256,), eps=1e-05, elementwise_affine=True)
          (2): ReLU(inplace=True)
        )
        (reg_module): ModuleList(
          (0): Linear(in_features=256, out_features=256, bias=False)
          (1): LayerNorm((256,), eps=1e-05, elementwise_affine=True)
          (2): ReLU(inplace=True)
          (3): Linear(in_features=256, out_features=256, bias=False)
          (4): LayerNorm((256,), eps=1e-05, elementwise_affine=True)
          (5): ReLU(inplace=True)
          (6): Linear(in_features=256, out_features=256, bias=False)
          (7): LayerNorm((256,), eps=1e-05, elementwise_affine=True)
          (8): ReLU(inplace=True)
        )
        (class_logits): Linear(in_features=256, out_features=80, bias=True)
        (bboxes_delta): Linear(in_features=256, out_features=4, bias=True)
      )
    )
  )
  (criterion): SetCriterion(
    (matcher): HungarianMatcher()
  )
)
[11/21 02:10:39] detectron2.data.datasets.coco INFO: Loading datasets/coco/annotations/instances_train2017.json takes 17.41 seconds.
[11/21 02:10:40] detectron2.data.datasets.coco INFO: Loaded 118287 images in COCO format from datasets/coco/annotations/instances_train2017.json
…
